<?xml version="1.0"?>
<net name="main_graph" version="11">
	<layers>
		<layer id="1" name="melspectogram" type="Parameter" version="opset1">
			<data shape="1,128,1501" element_type="f32" />
			<output>
				<port id="0" precision="FP32" names="melspectogram">
					<dim>1</dim>
					<dim>128</dim>
					<dim>1501</dim>
				</port>
			</output>
		</layer>
		<layer id="0" name="melspectogram_length" type="Parameter" version="opset1">
			<data shape="1" element_type="i32" />
			<rt_info>
				<attribute name="old_api_map_element_type" version="0" value="f32" />
			</rt_info>
			<output>
				<port id="0" precision="I32" names="melspectogram_length">
					<dim>1</dim>
				</port>
			</output>
		</layer>
		<layer id="2" name="/encoder/pre_encode/conv/Cast" type="Convert" version="opset1">
			<data destination_type="f32" />
			<input>
				<port id="0" precision="I32">
					<dim>1</dim>
				</port>
			</input>
			<output>
				<port id="1" precision="FP32" names="/encoder/pre_encode/conv/Cast_output_0">
					<dim>1</dim>
				</port>
			</output>
		</layer>
		<layer id="3" name="Constant_23358_compressed" type="Const" version="opset1">
			<data element_type="f16" shape="1" offset="0" size="2" />
			<output>
				<port id="0" precision="FP16">
					<dim>1</dim>
				</port>
			</output>
		</layer>
		<layer id="4" name="Constant_23358" type="Convert" version="opset1">
			<data destination_type="f32" />
			<rt_info>
				<attribute name="decompression" version="0" />
			</rt_info>
			<input>
				<port id="0" precision="FP16">
					<dim>1</dim>
				</port>
			</input>
			<output>
				<port id="1" precision="FP32">
					<dim>1</dim>
				</port>
			</output>
		</layer>
		<layer id="5" name="Multiply_22544" type="Multiply" version="opset1">
			<data auto_broadcast="numpy" />
			<input>
				<port id="0" precision="FP32">
					<dim>1</dim>
				</port>
				<port id="1" precision="FP32">
					<dim>1</dim>
				</port>
			</input>
			<output>
				<port id="2" precision="FP32">
					<dim>1</dim>
				</port>
			</output>
		</layer>
		<layer id="6" name="Constant_23359_compressed" type="Const" version="opset1">
			<data element_type="f16" shape="1" offset="2" size="2" />
			<output>
				<port id="0" precision="FP16">
					<dim>1</dim>
				</port>
			</output>
		</layer>
		<layer id="7" name="Constant_23359" type="Convert" version="opset1">
			<data destination_type="f32" />
			<rt_info>
				<attribute name="decompression" version="0" />
			</rt_info>
			<input>
				<port id="0" precision="FP16">
					<dim>1</dim>
				</port>
			</input>
			<output>
				<port id="1" precision="FP32">
					<dim>1</dim>
				</port>
			</output>
		</layer>
		<layer id="8" name="/encoder/pre_encode/conv/Div" type="Add" version="opset1">
			<data auto_broadcast="numpy" />
			<input>
				<port id="0" precision="FP32">
					<dim>1</dim>
				</port>
				<port id="1" precision="FP32">
					<dim>1</dim>
				</port>
			</input>
			<output>
				<port id="2" precision="FP32" names="/encoder/pre_encode/conv/Div_output_0">
					<dim>1</dim>
				</port>
			</output>
		</layer>
		<layer id="9" name="/encoder/pre_encode/conv/Cast_3" type="Convert" version="opset1">
			<data destination_type="i64" />
			<input>
				<port id="0" precision="FP32">
					<dim>1</dim>
				</port>
			</input>
			<output>
				<port id="1" precision="I64" names="/encoder/pre_encode/conv/Cast_3_output_0">
					<dim>1</dim>
				</port>
			</output>
		</layer>
		<layer id="10" name="/encoder/pre_encode/conv/Cast_4" type="Convert" version="opset1">
			<data destination_type="f32" />
			<input>
				<port id="0" precision="I64">
					<dim>1</dim>
				</port>
			</input>
			<output>
				<port id="1" precision="FP32" names="/encoder/pre_encode/conv/Cast_4_output_0">
					<dim>1</dim>
				</port>
			</output>
		</layer>
		<layer id="11" name="Constant_23360_compressed" type="Const" version="opset1">
			<data element_type="f16" shape="1" offset="4" size="2" />
			<output>
				<port id="0" precision="FP16">
					<dim>1</dim>
				</port>
			</output>
		</layer>
		<layer id="12" name="Constant_23360" type="Convert" version="opset1">
			<data destination_type="f32" />
			<rt_info>
				<attribute name="decompression" version="0" />
			</rt_info>
			<input>
				<port id="0" precision="FP16">
					<dim>1</dim>
				</port>
			</input>
			<output>
				<port id="1" precision="FP32">
					<dim>1</dim>
				</port>
			</output>
		</layer>
		<layer id="13" name="/encoder/pre_encode/conv/Add_2" type="Add" version="opset1">
			<data auto_broadcast="numpy" />
			<input>
				<port id="0" precision="FP32">
					<dim>1</dim>
				</port>
				<port id="1" precision="FP32">
					<dim>1</dim>
				</port>
			</input>
			<output>
				<port id="2" precision="FP32" names="/encoder/pre_encode/conv/Add_2_output_0">
					<dim>1</dim>
				</port>
			</output>
		</layer>
		<layer id="14" name="Constant_23361_compressed" type="Const" version="opset1">
			<data element_type="f16" shape="1" offset="0" size="2" />
			<output>
				<port id="0" precision="FP16">
					<dim>1</dim>
				</port>
			</output>
		</layer>
		<layer id="15" name="Constant_23361" type="Convert" version="opset1">
			<data destination_type="f32" />
			<rt_info>
				<attribute name="decompression" version="0" />
			</rt_info>
			<input>
				<port id="0" precision="FP16">
					<dim>1</dim>
				</port>
			</input>
			<output>
				<port id="1" precision="FP32">
					<dim>1</dim>
				</port>
			</output>
		</layer>
		<layer id="16" name="Multiply_22554" type="Multiply" version="opset1">
			<data auto_broadcast="numpy" />
			<input>
				<port id="0" precision="FP32">
					<dim>1</dim>
				</port>
				<port id="1" precision="FP32">
					<dim>1</dim>
				</port>
			</input>
			<output>
				<port id="2" precision="FP32">
					<dim>1</dim>
				</port>
			</output>
		</layer>
		<layer id="17" name="Constant_23362_compressed" type="Const" version="opset1">
			<data element_type="f16" shape="1" offset="2" size="2" />
			<output>
				<port id="0" precision="FP16">
					<dim>1</dim>
				</port>
			</output>
		</layer>
		<layer id="18" name="Constant_23362" type="Convert" version="opset1">
			<data destination_type="f32" />
			<rt_info>
				<attribute name="decompression" version="0" />
			</rt_info>
			<input>
				<port id="0" precision="FP16">
					<dim>1</dim>
				</port>
			</input>
			<output>
				<port id="1" precision="FP32">
					<dim>1</dim>
				</port>
			</output>
		</layer>
		<layer id="19" name="/encoder/pre_encode/conv/Div_1" type="Add" version="opset1">
			<data auto_broadcast="numpy" />
			<input>
				<port id="0" precision="FP32">
					<dim>1</dim>
				</port>
				<port id="1" precision="FP32">
					<dim>1</dim>
				</port>
			</input>
			<output>
				<port id="2" precision="FP32" names="/encoder/pre_encode/conv/Div_1_output_0">
					<dim>1</dim>
				</port>
			</output>
		</layer>
		<layer id="20" name="/encoder/pre_encode/conv/Cast_7" type="Convert" version="opset1">
			<data destination_type="i64" />
			<input>
				<port id="0" precision="FP32">
					<dim>1</dim>
				</port>
			</input>
			<output>
				<port id="1" precision="I64" names="/encoder/pre_encode/conv/Cast_7_output_0">
					<dim>1</dim>
				</port>
			</output>
		</layer>
		<layer id="21" name="/encoder/pre_encode/conv/Cast_8" type="Convert" version="opset1">
			<data destination_type="f32" />
			<input>
				<port id="0" precision="I64">
					<dim>1</dim>
				</port>
			</input>
			<output>
				<port id="1" precision="FP32" names="/encoder/pre_encode/conv/Cast_8_output_0">
					<dim>1</dim>
				</port>
			</output>
		</layer>
		<layer id="22" name="Constant_23363_compressed" type="Const" version="opset1">
			<data element_type="f16" shape="1" offset="4" size="2" />
			<output>
				<port id="0" precision="FP16">
					<dim>1</dim>
				</port>
			</output>
		</layer>
		<layer id="23" name="Constant_23363" type="Convert" version="opset1">
			<data destination_type="f32" />
			<rt_info>
				<attribute name="decompression" version="0" />
			</rt_info>
			<input>
				<port id="0" precision="FP16">
					<dim>1</dim>
				</port>
			</input>
			<output>
				<port id="1" precision="FP32">
					<dim>1</dim>
				</port>
			</output>
		</layer>
		<layer id="24" name="/encoder/pre_encode/conv/Add_5" type="Add" version="opset1">
			<data auto_broadcast="numpy" />
			<input>
				<port id="0" precision="FP32">
					<dim>1</dim>
				</port>
				<port id="1" precision="FP32">
					<dim>1</dim>
				</port>
			</input>
			<output>
				<port id="2" precision="FP32" names="/encoder/pre_encode/conv/Add_5_output_0">
					<dim>1</dim>
				</port>
			</output>
		</layer>
		<layer id="25" name="Constant_23364_compressed" type="Const" version="opset1">
			<data element_type="f16" shape="1" offset="0" size="2" />
			<output>
				<port id="0" precision="FP16">
					<dim>1</dim>
				</port>
			</output>
		</layer>
		<layer id="26" name="Constant_23364" type="Convert" version="opset1">
			<data destination_type="f32" />
			<rt_info>
				<attribute name="decompression" version="0" />
			</rt_info>
			<input>
				<port id="0" precision="FP16">
					<dim>1</dim>
				</port>
			</input>
			<output>
				<port id="1" precision="FP32">
					<dim>1</dim>
				</port>
			</output>
		</layer>
		<layer id="27" name="Multiply_22564" type="Multiply" version="opset1">
			<data auto_broadcast="numpy" />
			<input>
				<port id="0" precision="FP32">
					<dim>1</dim>
				</port>
				<port id="1" precision="FP32">
					<dim>1</dim>
				</port>
			</input>
			<output>
				<port id="2" precision="FP32">
					<dim>1</dim>
				</port>
			</output>
		</layer>
		<layer id="28" name="Constant_23365_compressed" type="Const" version="opset1">
			<data element_type="f16" shape="1" offset="2" size="2" />
			<output>
				<port id="0" precision="FP16">
					<dim>1</dim>
				</port>
			</output>
		</layer>
		<layer id="29" name="Constant_23365" type="Convert" version="opset1">
			<data destination_type="f32" />
			<rt_info>
				<attribute name="decompression" version="0" />
			</rt_info>
			<input>
				<port id="0" precision="FP16">
					<dim>1</dim>
				</port>
			</input>
			<output>
				<port id="1" precision="FP32">
					<dim>1</dim>
				</port>
			</output>
		</layer>
		<layer id="30" name="/encoder/pre_encode/conv/Div_2" type="Add" version="opset1">
			<data auto_broadcast="numpy" />
			<input>
				<port id="0" precision="FP32">
					<dim>1</dim>
				</port>
				<port id="1" precision="FP32">
					<dim>1</dim>
				</port>
			</input>
			<output>
				<port id="2" precision="FP32" names="/encoder/pre_encode/conv/Div_2_output_0">
					<dim>1</dim>
				</port>
			</output>
		</layer>
		<layer id="31" name="/encoder/pre_encode/conv/Cast_11" type="Convert" version="opset1">
			<data destination_type="i64" />
			<input>
				<port id="0" precision="FP32">
					<dim>1</dim>
				</port>
			</input>
			<output>
				<port id="1" precision="I64" names="/encoder/pre_encode/conv/Cast_11_output_0">
					<dim>1</dim>
				</port>
			</output>
		</layer>
		<layer id="32" name="/encoder/pre_encode/conv/Cast_12" type="Convert" version="opset1">
			<data destination_type="f32" />
			<input>
				<port id="0" precision="I64">
					<dim>1</dim>
				</port>
			</input>
			<output>
				<port id="1" precision="FP32" names="/encoder/pre_encode/conv/Cast_12_output_0">
					<dim>1</dim>
				</port>
			</output>
		</layer>
		<layer id="33" name="Constant_23366_compressed" type="Const" version="opset1">
			<data element_type="f16" shape="1" offset="4" size="2" />
			<output>
				<port id="0" precision="FP16">
					<dim>1</dim>
				</port>
			</output>
		</layer>
		<layer id="34" name="Constant_23366" type="Convert" version="opset1">
			<data destination_type="f32" />
			<rt_info>
				<attribute name="decompression" version="0" />
			</rt_info>
			<input>
				<port id="0" precision="FP16">
					<dim>1</dim>
				</port>
			</input>
			<output>
				<port id="1" precision="FP32">
					<dim>1</dim>
				</port>
			</output>
		</layer>
		<layer id="35" name="/encoder/pre_encode/conv/Add_8" type="Add" version="opset1">
			<data auto_broadcast="numpy" />
			<input>
				<port id="0" precision="FP32">
					<dim>1</dim>
				</port>
				<port id="1" precision="FP32">
					<dim>1</dim>
				</port>
			</input>
			<output>
				<port id="2" precision="FP32" names="/encoder/pre_encode/conv/Add_8_output_0">
					<dim>1</dim>
				</port>
			</output>
		</layer>
		<layer id="36" name="encoder_output_length" type="Convert" version="opset1">
			<data destination_type="i64" />
			<input>
				<port id="0" precision="FP32">
					<dim>1</dim>
				</port>
			</input>
			<output>
				<port id="1" precision="I64" names="encoder_output_length">
					<dim>1</dim>
				</port>
			</output>
		</layer>
		<layer id="38" name="Constant_23367_compressed" type="Const" version="opset1">
			<data element_type="f16" shape="1, 1, 1024" offset="6" size="2048" />
			<output>
				<port id="0" precision="FP16">
					<dim>1</dim>
					<dim>1</dim>
					<dim>1024</dim>
				</port>
			</output>
		</layer>
		<layer id="39" name="Constant_23367" type="Convert" version="opset1">
			<data destination_type="f32" />
			<rt_info>
				<attribute name="decompression" version="0" />
			</rt_info>
			<input>
				<port id="0" precision="FP16">
					<dim>1</dim>
					<dim>1</dim>
					<dim>1024</dim>
				</port>
			</input>
			<output>
				<port id="1" precision="FP32">
					<dim>1</dim>
					<dim>1</dim>
					<dim>1024</dim>
				</port>
			</output>
		</layer>
		<layer id="40" name="Constant_615" type="Const" version="opset1">
			<data element_type="i64" shape="3" offset="2054" size="24" />
			<output>
				<port id="0" precision="I64">
					<dim>3</dim>
				</port>
			</output>
		</layer>
		<layer id="41" name="/encoder/Transpose" type="Transpose" version="opset1">
			<input>
				<port id="0" precision="FP32">
					<dim>1</dim>
					<dim>128</dim>
					<dim>1501</dim>
				</port>
				<port id="1" precision="I64">
					<dim>3</dim>
				</port>
			</input>
			<output>
				<port id="2" precision="FP32" names="/encoder/Transpose_output_0">
					<dim>1</dim>
					<dim>1501</dim>
					<dim>128</dim>
				</port>
			</output>
		</layer>
		<layer id="42" name="/encoder/pre_encode/conv/Constant" type="Const" version="opset1">
			<data element_type="i64" shape="1" offset="2078" size="8" />
			<output>
				<port id="0" precision="I64" names="/encoder/pre_encode/conv/Constant_output_0">
					<dim>1</dim>
				</port>
			</output>
		</layer>
		<layer id="43" name="/encoder/pre_encode/conv/Unsqueeze" type="Unsqueeze" version="opset1">
			<input>
				<port id="0" precision="FP32">
					<dim>1</dim>
					<dim>1501</dim>
					<dim>128</dim>
				</port>
				<port id="1" precision="I64">
					<dim>1</dim>
				</port>
			</input>
			<output>
				<port id="2" precision="FP32" names="/encoder/pre_encode/conv/Unsqueeze_output_0">
					<dim>1</dim>
					<dim>1</dim>
					<dim>1501</dim>
					<dim>128</dim>
				</port>
			</output>
		</layer>
		<layer id="44" name="/encoder/pre_encode/conv/Expand" type="Const" version="opset1">
			<data element_type="i64" shape="1, 1501" offset="2086" size="12008" />
			<output>
				<port id="0" precision="I64" names="/encoder/pre_encode/conv/Expand_output_0">
					<dim>1</dim>
					<dim>1501</dim>
				</port>
			</output>
		</layer>
		<layer id="45" name="/encoder/pre_encode/conv/Cast_1" type="Convert" version="opset1">
			<data destination_type="i64" />
			<input>
				<port id="0" precision="FP32">
					<dim>1</dim>
				</port>
			</input>
			<output>
				<port id="1" precision="I64" names="/encoder/pre_encode/conv/Cast_1_output_0">
					<dim>1</dim>
				</port>
			</output>
		</layer>
		<layer id="46" name="/encoder/pre_encode/conv/Constant_5" type="Const" version="opset1">
			<data element_type="i64" shape="1" offset="2078" size="8" />
			<output>
				<port id="0" precision="I64" names="/encoder/pre_encode/conv/Constant_5_output_0">
					<dim>1</dim>
				</port>
			</output>
		</layer>
		<layer id="47" name="/encoder/pre_encode/conv/Unsqueeze_1" type="Unsqueeze" version="opset1">
			<input>
				<port id="0" precision="I64">
					<dim>1</dim>
				</port>
				<port id="1" precision="I64">
					<dim>1</dim>
				</port>
			</input>
			<output>
				<port id="2" precision="I64" names="/encoder/pre_encode/conv/Unsqueeze_1_output_0">
					<dim>1</dim>
					<dim>1</dim>
				</port>
			</output>
		</layer>
		<layer id="48" name="/encoder/pre_encode/conv/Less" type="Less" version="opset1">
			<data auto_broadcast="numpy" />
			<input>
				<port id="0" precision="I64">
					<dim>1</dim>
					<dim>1501</dim>
				</port>
				<port id="1" precision="I64">
					<dim>1</dim>
					<dim>1</dim>
				</port>
			</input>
			<output>
				<port id="2" precision="BOOL" names="/encoder/pre_encode/conv/Less_output_0">
					<dim>1</dim>
					<dim>1501</dim>
				</port>
			</output>
		</layer>
		<layer id="49" name="/encoder/pre_encode/conv/Constant_6" type="Const" version="opset1">
			<data element_type="i64" shape="1" offset="14094" size="8" />
			<output>
				<port id="0" precision="I64" names="/encoder/pre_encode/conv/Constant_6_output_0">
					<dim>1</dim>
				</port>
			</output>
		</layer>
		<layer id="50" name="/encoder/pre_encode/conv/Unsqueeze_2" type="Unsqueeze" version="opset1">
			<input>
				<port id="0" precision="BOOL">
					<dim>1</dim>
					<dim>1501</dim>
				</port>
				<port id="1" precision="I64">
					<dim>1</dim>
				</port>
			</input>
			<output>
				<port id="2" precision="BOOL" names="/encoder/pre_encode/conv/Unsqueeze_2_output_0">
					<dim>1</dim>
					<dim>1501</dim>
					<dim>1</dim>
				</port>
			</output>
		</layer>
		<layer id="51" name="/encoder/pre_encode/conv/Where_1" type="Const" version="opset1">
			<data element_type="i64" shape="3" offset="14102" size="24" />
			<rt_info>
				<attribute name="precise" version="0" />
			</rt_info>
			<output>
				<port id="0" precision="I64" names="/encoder/pre_encode/conv/Where_1_output_0">
					<dim>3</dim>
				</port>
			</output>
		</layer>
		<layer id="52" name="/encoder/pre_encode/conv/Expand_1" type="Broadcast" version="opset3">
			<data mode="bidirectional" />
			<input>
				<port id="0" precision="BOOL">
					<dim>1</dim>
					<dim>1501</dim>
					<dim>1</dim>
				</port>
				<port id="1" precision="I64">
					<dim>3</dim>
				</port>
			</input>
			<output>
				<port id="2" precision="BOOL" names="/encoder/pre_encode/conv/Expand_1_output_0">
					<dim>1</dim>
					<dim>1501</dim>
					<dim>128</dim>
				</port>
			</output>
		</layer>
		<layer id="53" name="/encoder/pre_encode/conv/Cast_2" type="Convert" version="opset1">
			<data destination_type="f32" />
			<input>
				<port id="0" precision="BOOL">
					<dim>1</dim>
					<dim>1501</dim>
					<dim>128</dim>
				</port>
			</input>
			<output>
				<port id="1" precision="FP32" names="/encoder/pre_encode/conv/Cast_2_output_0">
					<dim>1</dim>
					<dim>1501</dim>
					<dim>128</dim>
				</port>
			</output>
		</layer>
		<layer id="54" name="/encoder/pre_encode/conv/Constant_10" type="Const" version="opset1">
			<data element_type="i64" shape="1" offset="2078" size="8" />
			<output>
				<port id="0" precision="I64" names="/encoder/pre_encode/conv/Constant_10_output_0">
					<dim>1</dim>
				</port>
			</output>
		</layer>
		<layer id="55" name="/encoder/pre_encode/conv/Unsqueeze_3" type="Unsqueeze" version="opset1">
			<input>
				<port id="0" precision="FP32">
					<dim>1</dim>
					<dim>1501</dim>
					<dim>128</dim>
				</port>
				<port id="1" precision="I64">
					<dim>1</dim>
				</port>
			</input>
			<output>
				<port id="2" precision="FP32" names="/encoder/pre_encode/conv/Unsqueeze_3_output_0">
					<dim>1</dim>
					<dim>1</dim>
					<dim>1501</dim>
					<dim>128</dim>
				</port>
			</output>
		</layer>
		<layer id="56" name="Multiply_19005" type="Multiply" version="opset1">
			<data auto_broadcast="numpy" />
			<input>
				<port id="0" precision="FP32">
					<dim>1</dim>
					<dim>1</dim>
					<dim>1501</dim>
					<dim>128</dim>
				</port>
				<port id="1" precision="FP32">
					<dim>1</dim>
					<dim>1</dim>
					<dim>1501</dim>
					<dim>128</dim>
				</port>
			</input>
			<output>
				<port id="2" precision="FP32">
					<dim>1</dim>
					<dim>1</dim>
					<dim>1501</dim>
					<dim>128</dim>
				</port>
			</output>
		</layer>
		<layer id="57" name="ShapeOf_19006" type="ShapeOf" version="opset3">
			<data output_type="i64" />
			<input>
				<port id="0" precision="FP32">
					<dim>1</dim>
					<dim>1</dim>
					<dim>1501</dim>
					<dim>128</dim>
				</port>
			</input>
			<output>
				<port id="1" precision="I64">
					<dim>4</dim>
				</port>
			</output>
		</layer>
		<layer id="58" name="/encoder/pre_encode/conv/Where_2" type="Const" version="opset1">
			<data element_type="i64" shape="4" offset="14126" size="32" />
			<rt_info>
				<attribute name="precise" version="0" />
			</rt_info>
			<output>
				<port id="0" precision="I64" names="/encoder/pre_encode/conv/Where_2_output_0">
					<dim>4</dim>
				</port>
			</output>
		</layer>
		<layer id="59" name="Maximum_19007" type="Maximum" version="opset1">
			<data auto_broadcast="numpy" />
			<input>
				<port id="0" precision="I64">
					<dim>4</dim>
				</port>
				<port id="1" precision="I64">
					<dim>4</dim>
				</port>
			</input>
			<output>
				<port id="2" precision="I64">
					<dim>4</dim>
				</port>
			</output>
		</layer>
		<layer id="60" name="/encoder/pre_encode/conv/Mul_3" type="Broadcast" version="opset3">
			<data mode="numpy" />
			<input>
				<port id="0" precision="FP32">
					<dim>1</dim>
					<dim>1</dim>
					<dim>1501</dim>
					<dim>128</dim>
				</port>
				<port id="1" precision="I64">
					<dim>4</dim>
				</port>
			</input>
			<output>
				<port id="2" precision="FP32" names="/encoder/pre_encode/conv/Mul_3_output_0">
					<dim>1</dim>
					<dim>1</dim>
					<dim>1501</dim>
					<dim>128</dim>
				</port>
			</output>
		</layer>
		<layer id="61" name="encoder.pre_encode.conv.0.weight_compressed" type="Const" version="opset1">
			<data element_type="f16" shape="256, 1, 3, 3" offset="14158" size="4608" />
			<output>
				<port id="0" precision="FP16" names="encoder.pre_encode.conv.0.weight">
					<dim>256</dim>
					<dim>1</dim>
					<dim>3</dim>
					<dim>3</dim>
				</port>
			</output>
		</layer>
		<layer id="62" name="encoder.pre_encode.conv.0.weight" type="Convert" version="opset1">
			<data destination_type="f32" />
			<rt_info>
				<attribute name="decompression" version="0" />
			</rt_info>
			<input>
				<port id="0" precision="FP16">
					<dim>256</dim>
					<dim>1</dim>
					<dim>3</dim>
					<dim>3</dim>
				</port>
			</input>
			<output>
				<port id="1" precision="FP32">
					<dim>256</dim>
					<dim>1</dim>
					<dim>3</dim>
					<dim>3</dim>
				</port>
			</output>
		</layer>
		<layer id="63" name="/encoder/pre_encode/conv/conv.0/Conv/WithoutBiases" type="Convolution" version="opset1">
			<data strides="2, 2" dilations="1, 1" pads_begin="1, 1" pads_end="1, 1" auto_pad="explicit" />
			<input>
				<port id="0" precision="FP32">
					<dim>1</dim>
					<dim>1</dim>
					<dim>1501</dim>
					<dim>128</dim>
				</port>
				<port id="1" precision="FP32">
					<dim>256</dim>
					<dim>1</dim>
					<dim>3</dim>
					<dim>3</dim>
				</port>
			</input>
			<output>
				<port id="2" precision="FP32">
					<dim>1</dim>
					<dim>256</dim>
					<dim>751</dim>
					<dim>64</dim>
				</port>
			</output>
		</layer>
		<layer id="64" name="Reshape_687_compressed" type="Const" version="opset1">
			<data element_type="f16" shape="1, 256, 1, 1" offset="18766" size="512" />
			<output>
				<port id="0" precision="FP16">
					<dim>1</dim>
					<dim>256</dim>
					<dim>1</dim>
					<dim>1</dim>
				</port>
			</output>
		</layer>
		<layer id="65" name="Reshape_687" type="Convert" version="opset1">
			<data destination_type="f32" />
			<rt_info>
				<attribute name="decompression" version="0" />
			</rt_info>
			<input>
				<port id="0" precision="FP16">
					<dim>1</dim>
					<dim>256</dim>
					<dim>1</dim>
					<dim>1</dim>
				</port>
			</input>
			<output>
				<port id="1" precision="FP32">
					<dim>1</dim>
					<dim>256</dim>
					<dim>1</dim>
					<dim>1</dim>
				</port>
			</output>
		</layer>
		<layer id="66" name="/encoder/pre_encode/conv/conv.0/Conv" type="Add" version="opset1">
			<data auto_broadcast="numpy" />
			<input>
				<port id="0" precision="FP32">
					<dim>1</dim>
					<dim>256</dim>
					<dim>751</dim>
					<dim>64</dim>
				</port>
				<port id="1" precision="FP32">
					<dim>1</dim>
					<dim>256</dim>
					<dim>1</dim>
					<dim>1</dim>
				</port>
			</input>
			<output>
				<port id="2" precision="FP32" names="/encoder/pre_encode/conv/conv.0/Conv_output_0">
					<dim>1</dim>
					<dim>256</dim>
					<dim>751</dim>
					<dim>64</dim>
				</port>
			</output>
		</layer>
		<layer id="67" name="/encoder/pre_encode/conv/Expand_3" type="Const" version="opset1">
			<data element_type="i64" shape="1, 751" offset="19278" size="6008" />
			<output>
				<port id="0" precision="I64" names="/encoder/pre_encode/conv/Expand_3_output_0">
					<dim>1</dim>
					<dim>751</dim>
				</port>
			</output>
		</layer>
		<layer id="68" name="/encoder/pre_encode/conv/Cast_5" type="Convert" version="opset1">
			<data destination_type="i64" />
			<input>
				<port id="0" precision="FP32">
					<dim>1</dim>
				</port>
			</input>
			<output>
				<port id="1" precision="I64" names="/encoder/pre_encode/conv/Cast_5_output_0">
					<dim>1</dim>
				</port>
			</output>
		</layer>
		<layer id="69" name="/encoder/pre_encode/conv/Constant_23" type="Const" version="opset1">
			<data element_type="i64" shape="1" offset="2078" size="8" />
			<output>
				<port id="0" precision="I64" names="/encoder/pre_encode/conv/Constant_23_output_0">
					<dim>1</dim>
				</port>
			</output>
		</layer>
		<layer id="70" name="/encoder/pre_encode/conv/Unsqueeze_4" type="Unsqueeze" version="opset1">
			<input>
				<port id="0" precision="I64">
					<dim>1</dim>
				</port>
				<port id="1" precision="I64">
					<dim>1</dim>
				</port>
			</input>
			<output>
				<port id="2" precision="I64" names="/encoder/pre_encode/conv/Unsqueeze_4_output_0">
					<dim>1</dim>
					<dim>1</dim>
				</port>
			</output>
		</layer>
		<layer id="71" name="/encoder/pre_encode/conv/Less_1" type="Less" version="opset1">
			<data auto_broadcast="numpy" />
			<input>
				<port id="0" precision="I64">
					<dim>1</dim>
					<dim>751</dim>
				</port>
				<port id="1" precision="I64">
					<dim>1</dim>
					<dim>1</dim>
				</port>
			</input>
			<output>
				<port id="2" precision="BOOL" names="/encoder/pre_encode/conv/Less_1_output_0">
					<dim>1</dim>
					<dim>751</dim>
				</port>
			</output>
		</layer>
		<layer id="72" name="/encoder/pre_encode/conv/Constant_24" type="Const" version="opset1">
			<data element_type="i64" shape="1" offset="14094" size="8" />
			<output>
				<port id="0" precision="I64" names="/encoder/pre_encode/conv/Constant_24_output_0">
					<dim>1</dim>
				</port>
			</output>
		</layer>
		<layer id="73" name="/encoder/pre_encode/conv/Unsqueeze_5" type="Unsqueeze" version="opset1">
			<input>
				<port id="0" precision="BOOL">
					<dim>1</dim>
					<dim>751</dim>
				</port>
				<port id="1" precision="I64">
					<dim>1</dim>
				</port>
			</input>
			<output>
				<port id="2" precision="BOOL" names="/encoder/pre_encode/conv/Unsqueeze_5_output_0">
					<dim>1</dim>
					<dim>751</dim>
					<dim>1</dim>
				</port>
			</output>
		</layer>
		<layer id="74" name="/encoder/pre_encode/conv/Where_4" type="Const" version="opset1">
			<data element_type="i64" shape="3" offset="25286" size="24" />
			<rt_info>
				<attribute name="precise" version="0" />
			</rt_info>
			<output>
				<port id="0" precision="I64" names="/encoder/pre_encode/conv/Where_4_output_0">
					<dim>3</dim>
				</port>
			</output>
		</layer>
		<layer id="75" name="/encoder/pre_encode/conv/Expand_4" type="Broadcast" version="opset3">
			<data mode="bidirectional" />
			<input>
				<port id="0" precision="BOOL">
					<dim>1</dim>
					<dim>751</dim>
					<dim>1</dim>
				</port>
				<port id="1" precision="I64">
					<dim>3</dim>
				</port>
			</input>
			<output>
				<port id="2" precision="BOOL" names="/encoder/pre_encode/conv/Expand_4_output_0">
					<dim>1</dim>
					<dim>751</dim>
					<dim>64</dim>
				</port>
			</output>
		</layer>
		<layer id="76" name="/encoder/pre_encode/conv/Cast_6" type="Convert" version="opset1">
			<data destination_type="f32" />
			<input>
				<port id="0" precision="BOOL">
					<dim>1</dim>
					<dim>751</dim>
					<dim>64</dim>
				</port>
			</input>
			<output>
				<port id="1" precision="FP32" names="/encoder/pre_encode/conv/Cast_6_output_0">
					<dim>1</dim>
					<dim>751</dim>
					<dim>64</dim>
				</port>
			</output>
		</layer>
		<layer id="77" name="/encoder/pre_encode/conv/Constant_28" type="Const" version="opset1">
			<data element_type="i64" shape="1" offset="2078" size="8" />
			<output>
				<port id="0" precision="I64" names="/encoder/pre_encode/conv/Constant_28_output_0">
					<dim>1</dim>
				</port>
			</output>
		</layer>
		<layer id="78" name="/encoder/pre_encode/conv/Unsqueeze_6" type="Unsqueeze" version="opset1">
			<input>
				<port id="0" precision="FP32">
					<dim>1</dim>
					<dim>751</dim>
					<dim>64</dim>
				</port>
				<port id="1" precision="I64">
					<dim>1</dim>
				</port>
			</input>
			<output>
				<port id="2" precision="FP32" names="/encoder/pre_encode/conv/Unsqueeze_6_output_0">
					<dim>1</dim>
					<dim>1</dim>
					<dim>751</dim>
					<dim>64</dim>
				</port>
			</output>
		</layer>
		<layer id="79" name="/encoder/pre_encode/conv/Where_5" type="Const" version="opset1">
			<data element_type="i64" shape="4" offset="25310" size="32" />
			<rt_info>
				<attribute name="precise" version="0" />
			</rt_info>
			<output>
				<port id="0" precision="I64" names="/encoder/pre_encode/conv/Where_5_output_0">
					<dim>4</dim>
				</port>
			</output>
		</layer>
		<layer id="80" name="/encoder/pre_encode/conv/Expand_5" type="Broadcast" version="opset3">
			<data mode="bidirectional" />
			<input>
				<port id="0" precision="FP32">
					<dim>1</dim>
					<dim>1</dim>
					<dim>751</dim>
					<dim>64</dim>
				</port>
				<port id="1" precision="I64">
					<dim>4</dim>
				</port>
			</input>
			<output>
				<port id="2" precision="FP32" names="/encoder/pre_encode/conv/Expand_5_output_0,/encoder/pre_encode/conv/Expand_6_output_0">
					<dim>1</dim>
					<dim>256</dim>
					<dim>751</dim>
					<dim>64</dim>
				</port>
			</output>
		</layer>
		<layer id="81" name="/encoder/pre_encode/conv/Mul_7" type="Multiply" version="opset1">
			<data auto_broadcast="numpy" />
			<input>
				<port id="0" precision="FP32">
					<dim>1</dim>
					<dim>256</dim>
					<dim>751</dim>
					<dim>64</dim>
				</port>
				<port id="1" precision="FP32">
					<dim>1</dim>
					<dim>256</dim>
					<dim>751</dim>
					<dim>64</dim>
				</port>
			</input>
			<output>
				<port id="2" precision="FP32" names="/encoder/pre_encode/conv/Mul_7_output_0">
					<dim>1</dim>
					<dim>256</dim>
					<dim>751</dim>
					<dim>64</dim>
				</port>
			</output>
		</layer>
		<layer id="82" name="/encoder/pre_encode/conv/conv.1/Relu" type="ReLU" version="opset1">
			<input>
				<port id="0" precision="FP32">
					<dim>1</dim>
					<dim>256</dim>
					<dim>751</dim>
					<dim>64</dim>
				</port>
			</input>
			<output>
				<port id="1" precision="FP32" names="/encoder/pre_encode/conv/conv.1/Relu_output_0">
					<dim>1</dim>
					<dim>256</dim>
					<dim>751</dim>
					<dim>64</dim>
				</port>
			</output>
		</layer>
		<layer id="83" name="/encoder/pre_encode/conv/Mul_9" type="Multiply" version="opset1">
			<data auto_broadcast="numpy" />
			<input>
				<port id="0" precision="FP32">
					<dim>1</dim>
					<dim>256</dim>
					<dim>751</dim>
					<dim>64</dim>
				</port>
				<port id="1" precision="FP32">
					<dim>1</dim>
					<dim>256</dim>
					<dim>751</dim>
					<dim>64</dim>
				</port>
			</input>
			<output>
				<port id="2" precision="FP32" names="/encoder/pre_encode/conv/Mul_9_output_0">
					<dim>1</dim>
					<dim>256</dim>
					<dim>751</dim>
					<dim>64</dim>
				</port>
			</output>
		</layer>
		<layer id="84" name="Reshape_781_compressed" type="Const" version="opset1">
			<data element_type="f16" shape="256, 1, 1, 3, 3" offset="25342" size="4608" />
			<output>
				<port id="0" precision="FP16">
					<dim>256</dim>
					<dim>1</dim>
					<dim>1</dim>
					<dim>3</dim>
					<dim>3</dim>
				</port>
			</output>
		</layer>
		<layer id="85" name="Reshape_781" type="Convert" version="opset1">
			<data destination_type="f32" />
			<rt_info>
				<attribute name="decompression" version="0" />
			</rt_info>
			<input>
				<port id="0" precision="FP16">
					<dim>256</dim>
					<dim>1</dim>
					<dim>1</dim>
					<dim>3</dim>
					<dim>3</dim>
				</port>
			</input>
			<output>
				<port id="1" precision="FP32">
					<dim>256</dim>
					<dim>1</dim>
					<dim>1</dim>
					<dim>3</dim>
					<dim>3</dim>
				</port>
			</output>
		</layer>
		<layer id="86" name="/encoder/pre_encode/conv/conv.2/Conv/WithoutBiases" type="GroupConvolution" version="opset1">
			<data strides="2, 2" pads_begin="1, 1" pads_end="1, 1" dilations="1, 1" auto_pad="explicit" />
			<input>
				<port id="0" precision="FP32">
					<dim>1</dim>
					<dim>256</dim>
					<dim>751</dim>
					<dim>64</dim>
				</port>
				<port id="1" precision="FP32">
					<dim>256</dim>
					<dim>1</dim>
					<dim>1</dim>
					<dim>3</dim>
					<dim>3</dim>
				</port>
			</input>
			<output>
				<port id="2" precision="FP32">
					<dim>1</dim>
					<dim>256</dim>
					<dim>376</dim>
					<dim>32</dim>
				</port>
			</output>
		</layer>
		<layer id="87" name="Reshape_831_compressed" type="Const" version="opset1">
			<data element_type="f16" shape="1, 256, 1, 1" offset="29950" size="512" />
			<output>
				<port id="0" precision="FP16">
					<dim>1</dim>
					<dim>256</dim>
					<dim>1</dim>
					<dim>1</dim>
				</port>
			</output>
		</layer>
		<layer id="88" name="Reshape_831" type="Convert" version="opset1">
			<data destination_type="f32" />
			<rt_info>
				<attribute name="decompression" version="0" />
			</rt_info>
			<input>
				<port id="0" precision="FP16">
					<dim>1</dim>
					<dim>256</dim>
					<dim>1</dim>
					<dim>1</dim>
				</port>
			</input>
			<output>
				<port id="1" precision="FP32">
					<dim>1</dim>
					<dim>256</dim>
					<dim>1</dim>
					<dim>1</dim>
				</port>
			</output>
		</layer>
		<layer id="89" name="/encoder/pre_encode/conv/conv.2/Conv" type="Add" version="opset1">
			<data auto_broadcast="numpy" />
			<input>
				<port id="0" precision="FP32">
					<dim>1</dim>
					<dim>256</dim>
					<dim>376</dim>
					<dim>32</dim>
				</port>
				<port id="1" precision="FP32">
					<dim>1</dim>
					<dim>256</dim>
					<dim>1</dim>
					<dim>1</dim>
				</port>
			</input>
			<output>
				<port id="2" precision="FP32" names="/encoder/pre_encode/conv/conv.2/Conv_output_0">
					<dim>1</dim>
					<dim>256</dim>
					<dim>376</dim>
					<dim>32</dim>
				</port>
			</output>
		</layer>
		<layer id="90" name="/encoder/pre_encode/conv/Expand_7" type="Const" version="opset1">
			<data element_type="i64" shape="1, 376" offset="30462" size="3008" />
			<output>
				<port id="0" precision="I64" names="/encoder/pre_encode/conv/Expand_7_output_0">
					<dim>1</dim>
					<dim>376</dim>
				</port>
			</output>
		</layer>
		<layer id="91" name="/encoder/pre_encode/conv/Cast_9" type="Convert" version="opset1">
			<data destination_type="i64" />
			<input>
				<port id="0" precision="FP32">
					<dim>1</dim>
				</port>
			</input>
			<output>
				<port id="1" precision="I64" names="/encoder/pre_encode/conv/Cast_9_output_0">
					<dim>1</dim>
				</port>
			</output>
		</layer>
		<layer id="92" name="/encoder/pre_encode/conv/Constant_44" type="Const" version="opset1">
			<data element_type="i64" shape="1" offset="2078" size="8" />
			<output>
				<port id="0" precision="I64" names="/encoder/pre_encode/conv/Constant_44_output_0">
					<dim>1</dim>
				</port>
			</output>
		</layer>
		<layer id="93" name="/encoder/pre_encode/conv/Unsqueeze_7" type="Unsqueeze" version="opset1">
			<input>
				<port id="0" precision="I64">
					<dim>1</dim>
				</port>
				<port id="1" precision="I64">
					<dim>1</dim>
				</port>
			</input>
			<output>
				<port id="2" precision="I64" names="/encoder/pre_encode/conv/Unsqueeze_7_output_0">
					<dim>1</dim>
					<dim>1</dim>
				</port>
			</output>
		</layer>
		<layer id="94" name="/encoder/pre_encode/conv/Less_2" type="Less" version="opset1">
			<data auto_broadcast="numpy" />
			<input>
				<port id="0" precision="I64">
					<dim>1</dim>
					<dim>376</dim>
				</port>
				<port id="1" precision="I64">
					<dim>1</dim>
					<dim>1</dim>
				</port>
			</input>
			<output>
				<port id="2" precision="BOOL" names="/encoder/pre_encode/conv/Less_2_output_0">
					<dim>1</dim>
					<dim>376</dim>
				</port>
			</output>
		</layer>
		<layer id="95" name="/encoder/pre_encode/conv/Constant_45" type="Const" version="opset1">
			<data element_type="i64" shape="1" offset="14094" size="8" />
			<output>
				<port id="0" precision="I64" names="/encoder/pre_encode/conv/Constant_45_output_0">
					<dim>1</dim>
				</port>
			</output>
		</layer>
		<layer id="96" name="/encoder/pre_encode/conv/Unsqueeze_8" type="Unsqueeze" version="opset1">
			<input>
				<port id="0" precision="BOOL">
					<dim>1</dim>
					<dim>376</dim>
				</port>
				<port id="1" precision="I64">
					<dim>1</dim>
				</port>
			</input>
			<output>
				<port id="2" precision="BOOL" names="/encoder/pre_encode/conv/Unsqueeze_8_output_0">
					<dim>1</dim>
					<dim>376</dim>
					<dim>1</dim>
				</port>
			</output>
		</layer>
		<layer id="97" name="/encoder/pre_encode/conv/Where_8" type="Const" version="opset1">
			<data element_type="i64" shape="3" offset="33470" size="24" />
			<rt_info>
				<attribute name="precise" version="0" />
			</rt_info>
			<output>
				<port id="0" precision="I64" names="/encoder/pre_encode/conv/Where_8_output_0">
					<dim>3</dim>
				</port>
			</output>
		</layer>
		<layer id="98" name="/encoder/pre_encode/conv/Expand_8" type="Broadcast" version="opset3">
			<data mode="bidirectional" />
			<input>
				<port id="0" precision="BOOL">
					<dim>1</dim>
					<dim>376</dim>
					<dim>1</dim>
				</port>
				<port id="1" precision="I64">
					<dim>3</dim>
				</port>
			</input>
			<output>
				<port id="2" precision="BOOL" names="/encoder/pre_encode/conv/Expand_8_output_0">
					<dim>1</dim>
					<dim>376</dim>
					<dim>32</dim>
				</port>
			</output>
		</layer>
		<layer id="99" name="/encoder/pre_encode/conv/Cast_10" type="Convert" version="opset1">
			<data destination_type="f32" />
			<input>
				<port id="0" precision="BOOL">
					<dim>1</dim>
					<dim>376</dim>
					<dim>32</dim>
				</port>
			</input>
			<output>
				<port id="1" precision="FP32" names="/encoder/pre_encode/conv/Cast_10_output_0">
					<dim>1</dim>
					<dim>376</dim>
					<dim>32</dim>
				</port>
			</output>
		</layer>
		<layer id="100" name="/encoder/pre_encode/conv/Constant_49" type="Const" version="opset1">
			<data element_type="i64" shape="1" offset="2078" size="8" />
			<output>
				<port id="0" precision="I64" names="/encoder/pre_encode/conv/Constant_49_output_0">
					<dim>1</dim>
				</port>
			</output>
		</layer>
		<layer id="101" name="/encoder/pre_encode/conv/Unsqueeze_9" type="Unsqueeze" version="opset1">
			<input>
				<port id="0" precision="FP32">
					<dim>1</dim>
					<dim>376</dim>
					<dim>32</dim>
				</port>
				<port id="1" precision="I64">
					<dim>1</dim>
				</port>
			</input>
			<output>
				<port id="2" precision="FP32" names="/encoder/pre_encode/conv/Unsqueeze_9_output_0">
					<dim>1</dim>
					<dim>1</dim>
					<dim>376</dim>
					<dim>32</dim>
				</port>
			</output>
		</layer>
		<layer id="102" name="/encoder/pre_encode/conv/Where_9" type="Const" version="opset1">
			<data element_type="i64" shape="4" offset="33494" size="32" />
			<rt_info>
				<attribute name="precise" version="0" />
			</rt_info>
			<output>
				<port id="0" precision="I64" names="/encoder/pre_encode/conv/Where_9_output_0">
					<dim>4</dim>
				</port>
			</output>
		</layer>
		<layer id="103" name="/encoder/pre_encode/conv/Expand_9" type="Broadcast" version="opset3">
			<data mode="bidirectional" />
			<input>
				<port id="0" precision="FP32">
					<dim>1</dim>
					<dim>1</dim>
					<dim>376</dim>
					<dim>32</dim>
				</port>
				<port id="1" precision="I64">
					<dim>4</dim>
				</port>
			</input>
			<output>
				<port id="2" precision="FP32" names="/encoder/pre_encode/conv/Expand_10_output_0,/encoder/pre_encode/conv/Expand_11_output_0,/encoder/pre_encode/conv/Expand_9_output_0">
					<dim>1</dim>
					<dim>256</dim>
					<dim>376</dim>
					<dim>32</dim>
				</port>
			</output>
		</layer>
		<layer id="104" name="/encoder/pre_encode/conv/Mul_13" type="Multiply" version="opset1">
			<data auto_broadcast="numpy" />
			<input>
				<port id="0" precision="FP32">
					<dim>1</dim>
					<dim>256</dim>
					<dim>376</dim>
					<dim>32</dim>
				</port>
				<port id="1" precision="FP32">
					<dim>1</dim>
					<dim>256</dim>
					<dim>376</dim>
					<dim>32</dim>
				</port>
			</input>
			<output>
				<port id="2" precision="FP32" names="/encoder/pre_encode/conv/Mul_13_output_0">
					<dim>1</dim>
					<dim>256</dim>
					<dim>376</dim>
					<dim>32</dim>
				</port>
			</output>
		</layer>
		<layer id="105" name="encoder.pre_encode.conv.3.weight_compressed" type="Const" version="opset1">
			<data element_type="f16" shape="256, 256, 1, 1" offset="33526" size="131072" />
			<output>
				<port id="0" precision="FP16" names="encoder.pre_encode.conv.3.weight">
					<dim>256</dim>
					<dim>256</dim>
					<dim>1</dim>
					<dim>1</dim>
				</port>
			</output>
		</layer>
		<layer id="106" name="encoder.pre_encode.conv.3.weight" type="Convert" version="opset1">
			<data destination_type="f32" />
			<rt_info>
				<attribute name="decompression" version="0" />
			</rt_info>
			<input>
				<port id="0" precision="FP16">
					<dim>256</dim>
					<dim>256</dim>
					<dim>1</dim>
					<dim>1</dim>
				</port>
			</input>
			<output>
				<port id="1" precision="FP32">
					<dim>256</dim>
					<dim>256</dim>
					<dim>1</dim>
					<dim>1</dim>
				</port>
			</output>
		</layer>
		<layer id="107" name="/encoder/pre_encode/conv/conv.3/Conv/WithoutBiases" type="Convolution" version="opset1">
			<data strides="1, 1" dilations="1, 1" pads_begin="0, 0" pads_end="0, 0" auto_pad="explicit" />
			<input>
				<port id="0" precision="FP32">
					<dim>1</dim>
					<dim>256</dim>
					<dim>376</dim>
					<dim>32</dim>
				</port>
				<port id="1" precision="FP32">
					<dim>256</dim>
					<dim>256</dim>
					<dim>1</dim>
					<dim>1</dim>
				</port>
			</input>
			<output>
				<port id="2" precision="FP32">
					<dim>1</dim>
					<dim>256</dim>
					<dim>376</dim>
					<dim>32</dim>
				</port>
			</output>
		</layer>
		<layer id="108" name="Reshape_912_compressed" type="Const" version="opset1">
			<data element_type="f16" shape="1, 256, 1, 1" offset="164598" size="512" />
			<output>
				<port id="0" precision="FP16">
					<dim>1</dim>
					<dim>256</dim>
					<dim>1</dim>
					<dim>1</dim>
				</port>
			</output>
		</layer>
		<layer id="109" name="Reshape_912" type="Convert" version="opset1">
			<data destination_type="f32" />
			<rt_info>
				<attribute name="decompression" version="0" />
			</rt_info>
			<input>
				<port id="0" precision="FP16">
					<dim>1</dim>
					<dim>256</dim>
					<dim>1</dim>
					<dim>1</dim>
				</port>
			</input>
			<output>
				<port id="1" precision="FP32">
					<dim>1</dim>
					<dim>256</dim>
					<dim>1</dim>
					<dim>1</dim>
				</port>
			</output>
		</layer>
		<layer id="110" name="/encoder/pre_encode/conv/conv.3/Conv" type="Add" version="opset1">
			<data auto_broadcast="numpy" />
			<input>
				<port id="0" precision="FP32">
					<dim>1</dim>
					<dim>256</dim>
					<dim>376</dim>
					<dim>32</dim>
				</port>
				<port id="1" precision="FP32">
					<dim>1</dim>
					<dim>256</dim>
					<dim>1</dim>
					<dim>1</dim>
				</port>
			</input>
			<output>
				<port id="2" precision="FP32" names="/encoder/pre_encode/conv/conv.3/Conv_output_0">
					<dim>1</dim>
					<dim>256</dim>
					<dim>376</dim>
					<dim>32</dim>
				</port>
			</output>
		</layer>
		<layer id="111" name="/encoder/pre_encode/conv/Mul_15" type="Multiply" version="opset1">
			<data auto_broadcast="numpy" />
			<input>
				<port id="0" precision="FP32">
					<dim>1</dim>
					<dim>256</dim>
					<dim>376</dim>
					<dim>32</dim>
				</port>
				<port id="1" precision="FP32">
					<dim>1</dim>
					<dim>256</dim>
					<dim>376</dim>
					<dim>32</dim>
				</port>
			</input>
			<output>
				<port id="2" precision="FP32" names="/encoder/pre_encode/conv/Mul_15_output_0">
					<dim>1</dim>
					<dim>256</dim>
					<dim>376</dim>
					<dim>32</dim>
				</port>
			</output>
		</layer>
		<layer id="112" name="/encoder/pre_encode/conv/conv.1_1/Relu" type="ReLU" version="opset1">
			<input>
				<port id="0" precision="FP32">
					<dim>1</dim>
					<dim>256</dim>
					<dim>376</dim>
					<dim>32</dim>
				</port>
			</input>
			<output>
				<port id="1" precision="FP32" names="/encoder/pre_encode/conv/conv.1_1/Relu_output_0">
					<dim>1</dim>
					<dim>256</dim>
					<dim>376</dim>
					<dim>32</dim>
				</port>
			</output>
		</layer>
		<layer id="113" name="/encoder/pre_encode/conv/Mul_17" type="Multiply" version="opset1">
			<data auto_broadcast="numpy" />
			<input>
				<port id="0" precision="FP32">
					<dim>1</dim>
					<dim>256</dim>
					<dim>376</dim>
					<dim>32</dim>
				</port>
				<port id="1" precision="FP32">
					<dim>1</dim>
					<dim>256</dim>
					<dim>376</dim>
					<dim>32</dim>
				</port>
			</input>
			<output>
				<port id="2" precision="FP32" names="/encoder/pre_encode/conv/Mul_17_output_0">
					<dim>1</dim>
					<dim>256</dim>
					<dim>376</dim>
					<dim>32</dim>
				</port>
			</output>
		</layer>
		<layer id="114" name="Reshape_954_compressed" type="Const" version="opset1">
			<data element_type="f16" shape="256, 1, 1, 3, 3" offset="165110" size="4608" />
			<output>
				<port id="0" precision="FP16">
					<dim>256</dim>
					<dim>1</dim>
					<dim>1</dim>
					<dim>3</dim>
					<dim>3</dim>
				</port>
			</output>
		</layer>
		<layer id="115" name="Reshape_954" type="Convert" version="opset1">
			<data destination_type="f32" />
			<rt_info>
				<attribute name="decompression" version="0" />
			</rt_info>
			<input>
				<port id="0" precision="FP16">
					<dim>256</dim>
					<dim>1</dim>
					<dim>1</dim>
					<dim>3</dim>
					<dim>3</dim>
				</port>
			</input>
			<output>
				<port id="1" precision="FP32">
					<dim>256</dim>
					<dim>1</dim>
					<dim>1</dim>
					<dim>3</dim>
					<dim>3</dim>
				</port>
			</output>
		</layer>
		<layer id="116" name="/encoder/pre_encode/conv/conv.5/Conv/WithoutBiases" type="GroupConvolution" version="opset1">
			<data strides="2, 2" pads_begin="1, 1" pads_end="1, 1" dilations="1, 1" auto_pad="explicit" />
			<input>
				<port id="0" precision="FP32">
					<dim>1</dim>
					<dim>256</dim>
					<dim>376</dim>
					<dim>32</dim>
				</port>
				<port id="1" precision="FP32">
					<dim>256</dim>
					<dim>1</dim>
					<dim>1</dim>
					<dim>3</dim>
					<dim>3</dim>
				</port>
			</input>
			<output>
				<port id="2" precision="FP32">
					<dim>1</dim>
					<dim>256</dim>
					<dim>188</dim>
					<dim>16</dim>
				</port>
			</output>
		</layer>
		<layer id="117" name="Reshape_1004_compressed" type="Const" version="opset1">
			<data element_type="f16" shape="1, 256, 1, 1" offset="169718" size="512" />
			<output>
				<port id="0" precision="FP16">
					<dim>1</dim>
					<dim>256</dim>
					<dim>1</dim>
					<dim>1</dim>
				</port>
			</output>
		</layer>
		<layer id="118" name="Reshape_1004" type="Convert" version="opset1">
			<data destination_type="f32" />
			<rt_info>
				<attribute name="decompression" version="0" />
			</rt_info>
			<input>
				<port id="0" precision="FP16">
					<dim>1</dim>
					<dim>256</dim>
					<dim>1</dim>
					<dim>1</dim>
				</port>
			</input>
			<output>
				<port id="1" precision="FP32">
					<dim>1</dim>
					<dim>256</dim>
					<dim>1</dim>
					<dim>1</dim>
				</port>
			</output>
		</layer>
		<layer id="119" name="/encoder/pre_encode/conv/conv.5/Conv" type="Add" version="opset1">
			<data auto_broadcast="numpy" />
			<input>
				<port id="0" precision="FP32">
					<dim>1</dim>
					<dim>256</dim>
					<dim>188</dim>
					<dim>16</dim>
				</port>
				<port id="1" precision="FP32">
					<dim>1</dim>
					<dim>256</dim>
					<dim>1</dim>
					<dim>1</dim>
				</port>
			</input>
			<output>
				<port id="2" precision="FP32" names="/encoder/pre_encode/conv/conv.5/Conv_output_0">
					<dim>1</dim>
					<dim>256</dim>
					<dim>188</dim>
					<dim>16</dim>
				</port>
			</output>
		</layer>
		<layer id="120" name="/encoder/pre_encode/conv/Expand_12" type="Const" version="opset1">
			<data element_type="i64" shape="1, 188" offset="170230" size="1504" />
			<output>
				<port id="0" precision="I64" names="/encoder/pre_encode/conv/Expand_12_output_0">
					<dim>1</dim>
					<dim>188</dim>
				</port>
			</output>
		</layer>
		<layer id="121" name="/encoder/pre_encode/conv/Constant_68" type="Const" version="opset1">
			<data element_type="i64" shape="1" offset="2078" size="8" />
			<output>
				<port id="0" precision="I64" names="/encoder/pre_encode/conv/Constant_68_output_0">
					<dim>1</dim>
				</port>
			</output>
		</layer>
		<layer id="122" name="/encoder/pre_encode/conv/Unsqueeze_10" type="Unsqueeze" version="opset1">
			<input>
				<port id="0" precision="I64">
					<dim>1</dim>
				</port>
				<port id="1" precision="I64">
					<dim>1</dim>
				</port>
			</input>
			<output>
				<port id="2" precision="I64" names="/encoder/pre_encode/conv/Unsqueeze_10_output_0">
					<dim>1</dim>
					<dim>1</dim>
				</port>
			</output>
		</layer>
		<layer id="123" name="/encoder/pre_encode/conv/Less_3" type="Less" version="opset1">
			<data auto_broadcast="numpy" />
			<input>
				<port id="0" precision="I64">
					<dim>1</dim>
					<dim>188</dim>
				</port>
				<port id="1" precision="I64">
					<dim>1</dim>
					<dim>1</dim>
				</port>
			</input>
			<output>
				<port id="2" precision="BOOL" names="/encoder/pre_encode/conv/Less_3_output_0">
					<dim>1</dim>
					<dim>188</dim>
				</port>
			</output>
		</layer>
		<layer id="124" name="/encoder/pre_encode/conv/Constant_69" type="Const" version="opset1">
			<data element_type="i64" shape="1" offset="14094" size="8" />
			<output>
				<port id="0" precision="I64" names="/encoder/pre_encode/conv/Constant_69_output_0">
					<dim>1</dim>
				</port>
			</output>
		</layer>
		<layer id="125" name="/encoder/pre_encode/conv/Unsqueeze_11" type="Unsqueeze" version="opset1">
			<input>
				<port id="0" precision="BOOL">
					<dim>1</dim>
					<dim>188</dim>
				</port>
				<port id="1" precision="I64">
					<dim>1</dim>
				</port>
			</input>
			<output>
				<port id="2" precision="BOOL" names="/encoder/pre_encode/conv/Unsqueeze_11_output_0">
					<dim>1</dim>
					<dim>188</dim>
					<dim>1</dim>
				</port>
			</output>
		</layer>
		<layer id="126" name="/encoder/pre_encode/conv/Where_13" type="Const" version="opset1">
			<data element_type="i64" shape="3" offset="171734" size="24" />
			<rt_info>
				<attribute name="precise" version="0" />
			</rt_info>
			<output>
				<port id="0" precision="I64" names="/encoder/pre_encode/conv/Where_13_output_0">
					<dim>3</dim>
				</port>
			</output>
		</layer>
		<layer id="127" name="/encoder/pre_encode/conv/Expand_13" type="Broadcast" version="opset3">
			<data mode="bidirectional" />
			<input>
				<port id="0" precision="BOOL">
					<dim>1</dim>
					<dim>188</dim>
					<dim>1</dim>
				</port>
				<port id="1" precision="I64">
					<dim>3</dim>
				</port>
			</input>
			<output>
				<port id="2" precision="BOOL" names="/encoder/pre_encode/conv/Expand_13_output_0">
					<dim>1</dim>
					<dim>188</dim>
					<dim>16</dim>
				</port>
			</output>
		</layer>
		<layer id="128" name="/encoder/pre_encode/conv/Cast_14" type="Convert" version="opset1">
			<data destination_type="f32" />
			<input>
				<port id="0" precision="BOOL">
					<dim>1</dim>
					<dim>188</dim>
					<dim>16</dim>
				</port>
			</input>
			<output>
				<port id="1" precision="FP32" names="/encoder/pre_encode/conv/Cast_14_output_0">
					<dim>1</dim>
					<dim>188</dim>
					<dim>16</dim>
				</port>
			</output>
		</layer>
		<layer id="129" name="/encoder/pre_encode/conv/Constant_73" type="Const" version="opset1">
			<data element_type="i64" shape="1" offset="2078" size="8" />
			<output>
				<port id="0" precision="I64" names="/encoder/pre_encode/conv/Constant_73_output_0">
					<dim>1</dim>
				</port>
			</output>
		</layer>
		<layer id="130" name="/encoder/pre_encode/conv/Unsqueeze_12" type="Unsqueeze" version="opset1">
			<input>
				<port id="0" precision="FP32">
					<dim>1</dim>
					<dim>188</dim>
					<dim>16</dim>
				</port>
				<port id="1" precision="I64">
					<dim>1</dim>
				</port>
			</input>
			<output>
				<port id="2" precision="FP32" names="/encoder/pre_encode/conv/Unsqueeze_12_output_0">
					<dim>1</dim>
					<dim>1</dim>
					<dim>188</dim>
					<dim>16</dim>
				</port>
			</output>
		</layer>
		<layer id="131" name="/encoder/pre_encode/conv/Where_14" type="Const" version="opset1">
			<data element_type="i64" shape="4" offset="171758" size="32" />
			<rt_info>
				<attribute name="precise" version="0" />
			</rt_info>
			<output>
				<port id="0" precision="I64" names="/encoder/pre_encode/conv/Where_14_output_0">
					<dim>4</dim>
				</port>
			</output>
		</layer>
		<layer id="132" name="/encoder/pre_encode/conv/Expand_14" type="Broadcast" version="opset3">
			<data mode="bidirectional" />
			<input>
				<port id="0" precision="FP32">
					<dim>1</dim>
					<dim>1</dim>
					<dim>188</dim>
					<dim>16</dim>
				</port>
				<port id="1" precision="I64">
					<dim>4</dim>
				</port>
			</input>
			<output>
				<port id="2" precision="FP32" names="/encoder/pre_encode/conv/Expand_14_output_0,/encoder/pre_encode/conv/Expand_15_output_0,/encoder/pre_encode/conv/Expand_16_output_0">
					<dim>1</dim>
					<dim>256</dim>
					<dim>188</dim>
					<dim>16</dim>
				</port>
			</output>
		</layer>
		<layer id="133" name="/encoder/pre_encode/conv/Mul_21" type="Multiply" version="opset1">
			<data auto_broadcast="numpy" />
			<input>
				<port id="0" precision="FP32">
					<dim>1</dim>
					<dim>256</dim>
					<dim>188</dim>
					<dim>16</dim>
				</port>
				<port id="1" precision="FP32">
					<dim>1</dim>
					<dim>256</dim>
					<dim>188</dim>
					<dim>16</dim>
				</port>
			</input>
			<output>
				<port id="2" precision="FP32" names="/encoder/pre_encode/conv/Mul_21_output_0">
					<dim>1</dim>
					<dim>256</dim>
					<dim>188</dim>
					<dim>16</dim>
				</port>
			</output>
		</layer>
		<layer id="134" name="encoder.pre_encode.conv.6.weight_compressed" type="Const" version="opset1">
			<data element_type="f16" shape="256, 256, 1, 1" offset="171790" size="131072" />
			<output>
				<port id="0" precision="FP16" names="encoder.pre_encode.conv.6.weight">
					<dim>256</dim>
					<dim>256</dim>
					<dim>1</dim>
					<dim>1</dim>
				</port>
			</output>
		</layer>
		<layer id="135" name="encoder.pre_encode.conv.6.weight" type="Convert" version="opset1">
			<data destination_type="f32" />
			<rt_info>
				<attribute name="decompression" version="0" />
			</rt_info>
			<input>
				<port id="0" precision="FP16">
					<dim>256</dim>
					<dim>256</dim>
					<dim>1</dim>
					<dim>1</dim>
				</port>
			</input>
			<output>
				<port id="1" precision="FP32">
					<dim>256</dim>
					<dim>256</dim>
					<dim>1</dim>
					<dim>1</dim>
				</port>
			</output>
		</layer>
		<layer id="136" name="/encoder/pre_encode/conv/conv.6/Conv/WithoutBiases" type="Convolution" version="opset1">
			<data strides="1, 1" dilations="1, 1" pads_begin="0, 0" pads_end="0, 0" auto_pad="explicit" />
			<input>
				<port id="0" precision="FP32">
					<dim>1</dim>
					<dim>256</dim>
					<dim>188</dim>
					<dim>16</dim>
				</port>
				<port id="1" precision="FP32">
					<dim>256</dim>
					<dim>256</dim>
					<dim>1</dim>
					<dim>1</dim>
				</port>
			</input>
			<output>
				<port id="2" precision="FP32">
					<dim>1</dim>
					<dim>256</dim>
					<dim>188</dim>
					<dim>16</dim>
				</port>
			</output>
		</layer>
		<layer id="137" name="Reshape_1085_compressed" type="Const" version="opset1">
			<data element_type="f16" shape="1, 256, 1, 1" offset="302862" size="512" />
			<output>
				<port id="0" precision="FP16">
					<dim>1</dim>
					<dim>256</dim>
					<dim>1</dim>
					<dim>1</dim>
				</port>
			</output>
		</layer>
		<layer id="138" name="Reshape_1085" type="Convert" version="opset1">
			<data destination_type="f32" />
			<rt_info>
				<attribute name="decompression" version="0" />
			</rt_info>
			<input>
				<port id="0" precision="FP16">
					<dim>1</dim>
					<dim>256</dim>
					<dim>1</dim>
					<dim>1</dim>
				</port>
			</input>
			<output>
				<port id="1" precision="FP32">
					<dim>1</dim>
					<dim>256</dim>
					<dim>1</dim>
					<dim>1</dim>
				</port>
			</output>
		</layer>
		<layer id="139" name="/encoder/pre_encode/conv/conv.6/Conv" type="Add" version="opset1">
			<data auto_broadcast="numpy" />
			<input>
				<port id="0" precision="FP32">
					<dim>1</dim>
					<dim>256</dim>
					<dim>188</dim>
					<dim>16</dim>
				</port>
				<port id="1" precision="FP32">
					<dim>1</dim>
					<dim>256</dim>
					<dim>1</dim>
					<dim>1</dim>
				</port>
			</input>
			<output>
				<port id="2" precision="FP32" names="/encoder/pre_encode/conv/conv.6/Conv_output_0">
					<dim>1</dim>
					<dim>256</dim>
					<dim>188</dim>
					<dim>16</dim>
				</port>
			</output>
		</layer>
		<layer id="140" name="/encoder/pre_encode/conv/Mul_23" type="Multiply" version="opset1">
			<data auto_broadcast="numpy" />
			<input>
				<port id="0" precision="FP32">
					<dim>1</dim>
					<dim>256</dim>
					<dim>188</dim>
					<dim>16</dim>
				</port>
				<port id="1" precision="FP32">
					<dim>1</dim>
					<dim>256</dim>
					<dim>188</dim>
					<dim>16</dim>
				</port>
			</input>
			<output>
				<port id="2" precision="FP32" names="/encoder/pre_encode/conv/Mul_23_output_0">
					<dim>1</dim>
					<dim>256</dim>
					<dim>188</dim>
					<dim>16</dim>
				</port>
			</output>
		</layer>
		<layer id="141" name="/encoder/pre_encode/conv/conv.1_2/Relu" type="ReLU" version="opset1">
			<input>
				<port id="0" precision="FP32">
					<dim>1</dim>
					<dim>256</dim>
					<dim>188</dim>
					<dim>16</dim>
				</port>
			</input>
			<output>
				<port id="1" precision="FP32" names="/encoder/pre_encode/conv/conv.1_2/Relu_output_0">
					<dim>1</dim>
					<dim>256</dim>
					<dim>188</dim>
					<dim>16</dim>
				</port>
			</output>
		</layer>
		<layer id="142" name="/encoder/pre_encode/conv/Mul_25" type="Multiply" version="opset1">
			<data auto_broadcast="numpy" />
			<input>
				<port id="0" precision="FP32">
					<dim>1</dim>
					<dim>256</dim>
					<dim>188</dim>
					<dim>16</dim>
				</port>
				<port id="1" precision="FP32">
					<dim>1</dim>
					<dim>256</dim>
					<dim>188</dim>
					<dim>16</dim>
				</port>
			</input>
			<output>
				<port id="2" precision="FP32" names="/encoder/pre_encode/conv/Mul_25_output_0">
					<dim>1</dim>
					<dim>256</dim>
					<dim>188</dim>
					<dim>16</dim>
				</port>
			</output>
		</layer>
		<layer id="143" name="Constant_1121" type="Const" version="opset1">
			<data element_type="i64" shape="4" offset="303374" size="32" />
			<output>
				<port id="0" precision="I64">
					<dim>4</dim>
				</port>
			</output>
		</layer>
		<layer id="144" name="/encoder/pre_encode/Transpose" type="Transpose" version="opset1">
			<input>
				<port id="0" precision="FP32">
					<dim>1</dim>
					<dim>256</dim>
					<dim>188</dim>
					<dim>16</dim>
				</port>
				<port id="1" precision="I64">
					<dim>4</dim>
				</port>
			</input>
			<output>
				<port id="2" precision="FP32" names="/encoder/pre_encode/Transpose_output_0">
					<dim>1</dim>
					<dim>188</dim>
					<dim>256</dim>
					<dim>16</dim>
				</port>
			</output>
		</layer>
		<layer id="145" name="/encoder/pre_encode/Constant" type="Const" version="opset1">
			<data element_type="i64" shape="3" offset="303406" size="24" />
			<rt_info>
				<attribute name="precise" version="0" />
			</rt_info>
			<output>
				<port id="0" precision="I64" names="/encoder/pre_encode/Constant_output_0">
					<dim>3</dim>
				</port>
			</output>
		</layer>
		<layer id="146" name="/encoder/pre_encode/Reshape" type="Reshape" version="opset1">
			<data special_zero="true" />
			<input>
				<port id="0" precision="FP32">
					<dim>1</dim>
					<dim>188</dim>
					<dim>256</dim>
					<dim>16</dim>
				</port>
				<port id="1" precision="I64">
					<dim>3</dim>
				</port>
			</input>
			<output>
				<port id="2" precision="FP32" names="/encoder/pre_encode/Reshape_output_0">
					<dim>1</dim>
					<dim>188</dim>
					<dim>4096</dim>
				</port>
			</output>
		</layer>
		<layer id="147" name="Transpose_19763_compressed" type="Const" version="opset1">
			<data element_type="f16" shape="1024, 4096" offset="303430" size="8388608" />
			<output>
				<port id="0" precision="FP16">
					<dim>1024</dim>
					<dim>4096</dim>
				</port>
			</output>
		</layer>
		<layer id="148" name="Transpose_19763" type="Convert" version="opset1">
			<data destination_type="f32" />
			<rt_info>
				<attribute name="decompression" version="0" />
			</rt_info>
			<input>
				<port id="0" precision="FP16">
					<dim>1024</dim>
					<dim>4096</dim>
				</port>
			</input>
			<output>
				<port id="1" precision="FP32">
					<dim>1024</dim>
					<dim>4096</dim>
				</port>
			</output>
		</layer>
		<layer id="149" name="/encoder/pre_encode/out/MatMul" type="MatMul" version="opset1">
			<data transpose_a="false" transpose_b="true" />
			<input>
				<port id="0" precision="FP32">
					<dim>1</dim>
					<dim>188</dim>
					<dim>4096</dim>
				</port>
				<port id="1" precision="FP32">
					<dim>1024</dim>
					<dim>4096</dim>
				</port>
			</input>
			<output>
				<port id="2" precision="FP32" names="/encoder/pre_encode/out/MatMul_output_0">
					<dim>1</dim>
					<dim>188</dim>
					<dim>1024</dim>
				</port>
			</output>
		</layer>
		<layer id="150" name="/encoder/pre_encode/out/Add" type="Add" version="opset1">
			<data auto_broadcast="numpy" />
			<input>
				<port id="0" precision="FP32">
					<dim>1</dim>
					<dim>1</dim>
					<dim>1024</dim>
				</port>
				<port id="1" precision="FP32">
					<dim>1</dim>
					<dim>188</dim>
					<dim>1024</dim>
				</port>
			</input>
			<output>
				<port id="2" precision="FP32" names="/encoder/pre_encode/out/Add_output_0">
					<dim>1</dim>
					<dim>188</dim>
					<dim>1024</dim>
				</port>
			</output>
		</layer>
		<layer id="151" name="Range_1178" type="Const" version="opset1">
			<data element_type="i64" shape="1" offset="14094" size="8" />
			<output>
				<port id="0" precision="I64">
					<dim>1</dim>
				</port>
			</output>
		</layer>
		<layer id="152" name="MVN_1179" type="MVN" version="opset6">
			<data eps="9.9999997473787516e-06" normalize_variance="true" eps_mode="INSIDE_SQRT" />
			<input>
				<port id="0" precision="FP32">
					<dim>1</dim>
					<dim>188</dim>
					<dim>1024</dim>
				</port>
				<port id="1" precision="I64">
					<dim>1</dim>
				</port>
			</input>
			<output>
				<port id="2" precision="FP32">
					<dim>1</dim>
					<dim>188</dim>
					<dim>1024</dim>
				</port>
			</output>
		</layer>
		<layer id="153" name="Constant_23368_compressed" type="Const" version="opset1">
			<data element_type="f16" shape="1, 1, 1024" offset="8692038" size="2048" />
			<output>
				<port id="0" precision="FP16">
					<dim>1</dim>
					<dim>1</dim>
					<dim>1024</dim>
				</port>
			</output>
		</layer>
		<layer id="154" name="Constant_23368" type="Convert" version="opset1">
			<data destination_type="f32" />
			<rt_info>
				<attribute name="decompression" version="0" />
			</rt_info>
			<input>
				<port id="0" precision="FP16">
					<dim>1</dim>
					<dim>1</dim>
					<dim>1024</dim>
				</port>
			</input>
			<output>
				<port id="1" precision="FP32">
					<dim>1</dim>
					<dim>1</dim>
					<dim>1024</dim>
				</port>
			</output>
		</layer>
		<layer id="155" name="Multiply_1180" type="Multiply" version="opset1">
			<data auto_broadcast="numpy" />
			<input>
				<port id="0" precision="FP32">
					<dim>1</dim>
					<dim>188</dim>
					<dim>1024</dim>
				</port>
				<port id="1" precision="FP32">
					<dim>1</dim>
					<dim>1</dim>
					<dim>1024</dim>
				</port>
			</input>
			<output>
				<port id="2" precision="FP32">
					<dim>1</dim>
					<dim>188</dim>
					<dim>1024</dim>
				</port>
			</output>
		</layer>
		<layer id="156" name="Constant_23369_compressed" type="Const" version="opset1">
			<data element_type="f16" shape="1, 1, 1024" offset="8694086" size="2048" />
			<output>
				<port id="0" precision="FP16">
					<dim>1</dim>
					<dim>1</dim>
					<dim>1024</dim>
				</port>
			</output>
		</layer>
		<layer id="157" name="Constant_23369" type="Convert" version="opset1">
			<data destination_type="f32" />
			<rt_info>
				<attribute name="decompression" version="0" />
			</rt_info>
			<input>
				<port id="0" precision="FP16">
					<dim>1</dim>
					<dim>1</dim>
					<dim>1024</dim>
				</port>
			</input>
			<output>
				<port id="1" precision="FP32">
					<dim>1</dim>
					<dim>1</dim>
					<dim>1024</dim>
				</port>
			</output>
		</layer>
		<layer id="158" name="/encoder/layers.0/norm_feed_forward1/LayerNormalization" type="Add" version="opset1">
			<data auto_broadcast="numpy" />
			<input>
				<port id="0" precision="FP32">
					<dim>1</dim>
					<dim>188</dim>
					<dim>1024</dim>
				</port>
				<port id="1" precision="FP32">
					<dim>1</dim>
					<dim>1</dim>
					<dim>1024</dim>
				</port>
			</input>
			<output>
				<port id="2" precision="FP32" names="/encoder/layers.0/norm_feed_forward1/LayerNormalization_output_0">
					<dim>1</dim>
					<dim>188</dim>
					<dim>1024</dim>
				</port>
			</output>
		</layer>
		<layer id="159" name="Transpose_19774_compressed" type="Const" version="opset1">
			<data element_type="f16" shape="4096, 1024" offset="8696134" size="8388608" />
			<output>
				<port id="0" precision="FP16">
					<dim>4096</dim>
					<dim>1024</dim>
				</port>
			</output>
		</layer>
		<layer id="160" name="Transpose_19774" type="Convert" version="opset1">
			<data destination_type="f32" />
			<rt_info>
				<attribute name="decompression" version="0" />
			</rt_info>
			<input>
				<port id="0" precision="FP16">
					<dim>4096</dim>
					<dim>1024</dim>
				</port>
			</input>
			<output>
				<port id="1" precision="FP32">
					<dim>4096</dim>
					<dim>1024</dim>
				</port>
			</output>
		</layer>
		<layer id="161" name="/encoder/layers.0/feed_forward1/linear1/MatMul" type="MatMul" version="opset1">
			<data transpose_a="false" transpose_b="true" />
			<input>
				<port id="0" precision="FP32">
					<dim>1</dim>
					<dim>188</dim>
					<dim>1024</dim>
				</port>
				<port id="1" precision="FP32">
					<dim>4096</dim>
					<dim>1024</dim>
				</port>
			</input>
			<output>
				<port id="2" precision="FP32" names="/encoder/layers.0/feed_forward1/linear1/MatMul_output_0">
					<dim>1</dim>
					<dim>188</dim>
					<dim>4096</dim>
				</port>
			</output>
		</layer>
		<layer id="162" name="/encoder/layers.0/feed_forward1/activation/Mul" type="Swish" version="opset4">
			<input>
				<port id="0" precision="FP32">
					<dim>1</dim>
					<dim>188</dim>
					<dim>4096</dim>
				</port>
			</input>
			<output>
				<port id="1" precision="FP32" names="/encoder/layers.0/feed_forward1/activation/Mul_output_0">
					<dim>1</dim>
					<dim>188</dim>
					<dim>4096</dim>
				</port>
			</output>
		</layer>
		<layer id="163" name="Transpose_19778_compressed" type="Const" version="opset1">
			<data element_type="f16" shape="1024, 4096" offset="17084742" size="8388608" />
			<output>
				<port id="0" precision="FP16">
					<dim>1024</dim>
					<dim>4096</dim>
				</port>
			</output>
		</layer>
		<layer id="164" name="Transpose_19778" type="Convert" version="opset1">
			<data destination_type="f32" />
			<rt_info>
				<attribute name="decompression" version="0" />
			</rt_info>
			<input>
				<port id="0" precision="FP16">
					<dim>1024</dim>
					<dim>4096</dim>
				</port>
			</input>
			<output>
				<port id="1" precision="FP32">
					<dim>1024</dim>
					<dim>4096</dim>
				</port>
			</output>
		</layer>
		<layer id="165" name="/encoder/layers.0/feed_forward1/linear2/MatMul" type="MatMul" version="opset1">
			<data transpose_a="false" transpose_b="true" />
			<input>
				<port id="0" precision="FP32">
					<dim>1</dim>
					<dim>188</dim>
					<dim>4096</dim>
				</port>
				<port id="1" precision="FP32">
					<dim>1024</dim>
					<dim>4096</dim>
				</port>
			</input>
			<output>
				<port id="2" precision="FP32" names="/encoder/layers.0/feed_forward1/linear2/MatMul_output_0">
					<dim>1</dim>
					<dim>188</dim>
					<dim>1024</dim>
				</port>
			</output>
		</layer>
		<layer id="166" name="Constant_23370_compressed" type="Const" version="opset1">
			<data element_type="f16" shape="1, 1, 1" offset="0" size="2" />
			<output>
				<port id="0" precision="FP16">
					<dim>1</dim>
					<dim>1</dim>
					<dim>1</dim>
				</port>
			</output>
		</layer>
		<layer id="167" name="Constant_23370" type="Convert" version="opset1">
			<data destination_type="f32" />
			<rt_info>
				<attribute name="decompression" version="0" />
			</rt_info>
			<input>
				<port id="0" precision="FP16">
					<dim>1</dim>
					<dim>1</dim>
					<dim>1</dim>
				</port>
			</input>
			<output>
				<port id="1" precision="FP32">
					<dim>1</dim>
					<dim>1</dim>
					<dim>1</dim>
				</port>
			</output>
		</layer>
		<layer id="168" name="/encoder/layers.0/Mul" type="Multiply" version="opset1">
			<data auto_broadcast="numpy" />
			<input>
				<port id="0" precision="FP32">
					<dim>1</dim>
					<dim>188</dim>
					<dim>1024</dim>
				</port>
				<port id="1" precision="FP32">
					<dim>1</dim>
					<dim>1</dim>
					<dim>1</dim>
				</port>
			</input>
			<output>
				<port id="2" precision="FP32" names="/encoder/layers.0/Mul_output_0">
					<dim>1</dim>
					<dim>188</dim>
					<dim>1024</dim>
				</port>
			</output>
		</layer>
		<layer id="169" name="/encoder/layers.0/Add" type="Add" version="opset1">
			<data auto_broadcast="numpy" />
			<input>
				<port id="0" precision="FP32">
					<dim>1</dim>
					<dim>188</dim>
					<dim>1024</dim>
				</port>
				<port id="1" precision="FP32">
					<dim>1</dim>
					<dim>188</dim>
					<dim>1024</dim>
				</port>
			</input>
			<output>
				<port id="2" precision="FP32" names="/encoder/layers.0/Add_output_0">
					<dim>1</dim>
					<dim>188</dim>
					<dim>1024</dim>
				</port>
			</output>
		</layer>
		<layer id="170" name="/encoder/Expand" type="Const" version="opset1">
			<data element_type="i64" shape="1, 188" offset="170230" size="1504" />
			<output>
				<port id="0" precision="I64" names="/encoder/Expand_output_0">
					<dim>1</dim>
					<dim>188</dim>
				</port>
			</output>
		</layer>
		<layer id="171" name="/encoder/Constant_4" type="Const" version="opset1">
			<data element_type="i64" shape="1" offset="14094" size="8" />
			<output>
				<port id="0" precision="I64" names="/encoder/Constant_4_output_0">
					<dim>1</dim>
				</port>
			</output>
		</layer>
		<layer id="172" name="/encoder/Unsqueeze" type="Unsqueeze" version="opset1">
			<input>
				<port id="0" precision="I64">
					<dim>1</dim>
				</port>
				<port id="1" precision="I64">
					<dim>1</dim>
				</port>
			</input>
			<output>
				<port id="2" precision="I64" names="/encoder/Unsqueeze_output_0">
					<dim>1</dim>
					<dim>1</dim>
				</port>
			</output>
		</layer>
		<layer id="173" name="/encoder/Less" type="Less" version="opset1">
			<data auto_broadcast="numpy" />
			<input>
				<port id="0" precision="I64">
					<dim>1</dim>
					<dim>188</dim>
				</port>
				<port id="1" precision="I64">
					<dim>1</dim>
					<dim>1</dim>
				</port>
			</input>
			<output>
				<port id="2" precision="BOOL" names="/encoder/Less_output_0">
					<dim>1</dim>
					<dim>188</dim>
				</port>
			</output>
		</layer>
		<layer id="174" name="/encoder/Constant_5" type="Const" version="opset1">
			<data element_type="i64" shape="1" offset="2078" size="8" />
			<output>
				<port id="0" precision="I64" names="/encoder/Constant_5_output_0">
					<dim>1</dim>
				</port>
			</output>
		</layer>
		<layer id="175" name="/encoder/Unsqueeze_1" type="Unsqueeze" version="opset1">
			<input>
				<port id="0" precision="BOOL">
					<dim>1</dim>
					<dim>188</dim>
				</port>
				<port id="1" precision="I64">
					<dim>1</dim>
				</port>
			</input>
			<output>
				<port id="2" precision="BOOL" names="/encoder/Expand_1_output_0,/encoder/Unsqueeze_1_output_0">
					<dim>1</dim>
					<dim>1</dim>
					<dim>188</dim>
				</port>
			</output>
		</layer>
		<layer id="176" name="Convert_1157" type="Const" version="opset1">
			<data element_type="i64" shape="3" offset="25473350" size="24" />
			<rt_info>
				<attribute name="precise" version="0" />
			</rt_info>
			<output>
				<port id="0" precision="I64">
					<dim>3</dim>
				</port>
			</output>
		</layer>
		<layer id="177" name="/encoder/Tile" type="Tile" version="opset1">
			<input>
				<port id="0" precision="BOOL">
					<dim>1</dim>
					<dim>1</dim>
					<dim>188</dim>
				</port>
				<port id="1" precision="I64">
					<dim>3</dim>
				</port>
			</input>
			<output>
				<port id="2" precision="BOOL" names="/encoder/Cast_1_output_0,/encoder/Tile_output_0">
					<dim>1</dim>
					<dim>188</dim>
					<dim>188</dim>
				</port>
			</output>
		</layer>
		<layer id="178" name="Constant_1165" type="Const" version="opset1">
			<data element_type="i64" shape="3" offset="2054" size="24" />
			<output>
				<port id="0" precision="I64">
					<dim>3</dim>
				</port>
			</output>
		</layer>
		<layer id="179" name="/encoder/Transpose_1" type="Transpose" version="opset1">
			<input>
				<port id="0" precision="BOOL">
					<dim>1</dim>
					<dim>188</dim>
					<dim>188</dim>
				</port>
				<port id="1" precision="I64">
					<dim>3</dim>
				</port>
			</input>
			<output>
				<port id="2" precision="BOOL" names="/encoder/Cast_2_output_0,/encoder/Transpose_1_output_0">
					<dim>1</dim>
					<dim>188</dim>
					<dim>188</dim>
				</port>
			</output>
		</layer>
		<layer id="180" name="/encoder/And" type="LogicalAnd" version="opset1">
			<data auto_broadcast="numpy" />
			<input>
				<port id="0" precision="BOOL">
					<dim>1</dim>
					<dim>188</dim>
					<dim>188</dim>
				</port>
				<port id="1" precision="BOOL">
					<dim>1</dim>
					<dim>188</dim>
					<dim>188</dim>
				</port>
			</input>
			<output>
				<port id="2" precision="BOOL" names="/encoder/And_output_0,/encoder/Cast_3_output_0">
					<dim>1</dim>
					<dim>188</dim>
					<dim>188</dim>
				</port>
			</output>
		</layer>
		<layer id="181" name="/encoder/Constant_8" type="Const" version="opset1">
			<data element_type="boolean" shape="1, 188, 188" offset="25473374" size="35344" />
			<output>
				<port id="0" precision="BOOL" names="/encoder/Constant_8_output_0">
					<dim>1</dim>
					<dim>188</dim>
					<dim>188</dim>
				</port>
			</output>
		</layer>
		<layer id="182" name="/encoder/And_1" type="LogicalAnd" version="opset1">
			<data auto_broadcast="numpy" />
			<input>
				<port id="0" precision="BOOL">
					<dim>1</dim>
					<dim>188</dim>
					<dim>188</dim>
				</port>
				<port id="1" precision="BOOL">
					<dim>1</dim>
					<dim>188</dim>
					<dim>188</dim>
				</port>
			</input>
			<output>
				<port id="2" precision="BOOL" names="/encoder/And_1_output_0">
					<dim>1</dim>
					<dim>188</dim>
					<dim>188</dim>
				</port>
			</output>
		</layer>
		<layer id="183" name="/encoder/Not" type="LogicalNot" version="opset1">
			<input>
				<port id="0" precision="BOOL">
					<dim>1</dim>
					<dim>188</dim>
					<dim>188</dim>
				</port>
			</input>
			<output>
				<port id="1" precision="BOOL" names="/encoder/Not_output_0">
					<dim>1</dim>
					<dim>188</dim>
					<dim>188</dim>
				</port>
			</output>
		</layer>
		<layer id="184" name="/encoder/layers.0/self_attn/Constant_23" type="Const" version="opset1">
			<data element_type="i64" shape="1" offset="2078" size="8" />
			<output>
				<port id="0" precision="I64" names="/encoder/layers.0/self_attn/Constant_23_output_0">
					<dim>1</dim>
				</port>
			</output>
		</layer>
		<layer id="185" name="/encoder/layers.0/self_attn/Unsqueeze" type="Unsqueeze" version="opset1">
			<input>
				<port id="0" precision="BOOL">
					<dim>1</dim>
					<dim>188</dim>
					<dim>188</dim>
				</port>
				<port id="1" precision="I64">
					<dim>1</dim>
				</port>
			</input>
			<output>
				<port id="2" precision="BOOL" names="/encoder/layers.0/self_attn/Cast_1_output_0,/encoder/layers.0/self_attn/Cast_2_output_0,/encoder/layers.0/self_attn/Unsqueeze_output_0,/encoder/layers.1/self_attn/Cast_1_output_0,/encoder/layers.1/self_attn/Cast_2_output_0,/encoder/layers.10/self_attn/Cast_1_output_0,/encoder/layers.10/self_attn/Cast_2_output_0,/encoder/layers.11/self_attn/Cast_1_output_0,/encoder/layers.11/self_attn/Cast_2_output_0,/encoder/layers.12/self_attn/Cast_1_output_0,/encoder/layers.12/self_attn/Cast_2_output_0,/encoder/layers.13/self_attn/Cast_1_output_0,/encoder/layers.13/self_attn/Cast_2_output_0,/encoder/layers.14/self_attn/Cast_1_output_0,/encoder/layers.14/self_attn/Cast_2_output_0,/encoder/layers.15/self_attn/Cast_1_output_0,/encoder/layers.15/self_attn/Cast_2_output_0,/encoder/layers.16/self_attn/Cast_1_output_0,/encoder/layers.16/self_attn/Cast_2_output_0,/encoder/layers.17/self_attn/Cast_1_output_0,/encoder/layers.17/self_attn/Cast_2_output_0,/encoder/layers.18/self_attn/Cast_1_output_0,/encoder/layers.18/self_attn/Cast_2_output_0,/encoder/layers.19/self_attn/Cast_1_output_0,/encoder/layers.19/self_attn/Cast_2_output_0,/encoder/layers.2/self_attn/Cast_1_output_0,/encoder/layers.2/self_attn/Cast_2_output_0,/encoder/layers.20/self_attn/Cast_1_output_0,/encoder/layers.20/self_attn/Cast_2_output_0,/encoder/layers.21/self_attn/Cast_1_output_0,/encoder/layers.21/self_attn/Cast_2_output_0,/encoder/layers.22/self_attn/Cast_1_output_0,/encoder/layers.22/self_attn/Cast_2_output_0,/encoder/layers.23/self_attn/Cast_1_output_0,/encoder/layers.23/self_attn/Cast_2_output_0,/encoder/layers.3/self_attn/Cast_1_output_0,/encoder/layers.3/self_attn/Cast_2_output_0,/encoder/layers.4/self_attn/Cast_1_output_0,/encoder/layers.4/self_attn/Cast_2_output_0,/encoder/layers.5/self_attn/Cast_1_output_0,/encoder/layers.5/self_attn/Cast_2_output_0,/encoder/layers.6/self_attn/Cast_1_output_0,/encoder/layers.6/self_attn/Cast_2_output_0,/encoder/layers.7/self_attn/Cast_1_output_0,/encoder/layers.7/self_attn/Cast_2_output_0,/encoder/layers.8/self_attn/Cast_1_output_0,/encoder/layers.8/self_attn/Cast_2_output_0,/encoder/layers.9/self_attn/Cast_1_output_0,/encoder/layers.9/self_attn/Cast_2_output_0">
					<dim>1</dim>
					<dim>1</dim>
					<dim>188</dim>
					<dim>188</dim>
				</port>
			</output>
		</layer>
		<layer id="186" name="/encoder/layers.0/self_attn/Constant_25_compressed" type="Const" version="opset1">
			<data element_type="f16" shape="" offset="25508718" size="2" />
			<output>
				<port id="0" precision="FP16" names="/encoder/layers.0/self_attn/Constant_25_output_0" />
			</output>
		</layer>
		<layer id="187" name="/encoder/layers.0/self_attn/Constant_25" type="Convert" version="opset1">
			<data destination_type="f32" />
			<rt_info>
				<attribute name="decompression" version="0" />
			</rt_info>
			<input>
				<port id="0" precision="FP16" />
			</input>
			<output>
				<port id="1" precision="FP32" />
			</output>
		</layer>
		<layer id="188" name="/encoder/layers.0/self_attn/Constant_24_compressed" type="Const" version="opset1">
			<data element_type="f16" shape="" offset="25508720" size="2" />
			<output>
				<port id="0" precision="FP16" names="/encoder/layers.0/self_attn/Constant_24_output_0" />
			</output>
		</layer>
		<layer id="189" name="/encoder/layers.0/self_attn/Constant_24" type="Convert" version="opset1">
			<data destination_type="f32" />
			<rt_info>
				<attribute name="decompression" version="0" />
			</rt_info>
			<input>
				<port id="0" precision="FP16" />
			</input>
			<output>
				<port id="1" precision="FP32" />
			</output>
		</layer>
		<layer id="190" name="Range_1192" type="Const" version="opset1">
			<data element_type="i64" shape="1" offset="14094" size="8" />
			<output>
				<port id="0" precision="I64">
					<dim>1</dim>
				</port>
			</output>
		</layer>
		<layer id="191" name="MVN_1193" type="MVN" version="opset6">
			<data eps="9.9999997473787516e-06" normalize_variance="true" eps_mode="INSIDE_SQRT" />
			<input>
				<port id="0" precision="FP32">
					<dim>1</dim>
					<dim>188</dim>
					<dim>1024</dim>
				</port>
				<port id="1" precision="I64">
					<dim>1</dim>
				</port>
			</input>
			<output>
				<port id="2" precision="FP32">
					<dim>1</dim>
					<dim>188</dim>
					<dim>1024</dim>
				</port>
			</output>
		</layer>
		<layer id="192" name="Constant_23371_compressed" type="Const" version="opset1">
			<data element_type="f16" shape="1, 1, 1024" offset="25508722" size="2048" />
			<output>
				<port id="0" precision="FP16">
					<dim>1</dim>
					<dim>1</dim>
					<dim>1024</dim>
				</port>
			</output>
		</layer>
		<layer id="193" name="Constant_23371" type="Convert" version="opset1">
			<data destination_type="f32" />
			<rt_info>
				<attribute name="decompression" version="0" />
			</rt_info>
			<input>
				<port id="0" precision="FP16">
					<dim>1</dim>
					<dim>1</dim>
					<dim>1024</dim>
				</port>
			</input>
			<output>
				<port id="1" precision="FP32">
					<dim>1</dim>
					<dim>1</dim>
					<dim>1024</dim>
				</port>
			</output>
		</layer>
		<layer id="194" name="Multiply_1194" type="Multiply" version="opset1">
			<data auto_broadcast="numpy" />
			<input>
				<port id="0" precision="FP32">
					<dim>1</dim>
					<dim>188</dim>
					<dim>1024</dim>
				</port>
				<port id="1" precision="FP32">
					<dim>1</dim>
					<dim>1</dim>
					<dim>1024</dim>
				</port>
			</input>
			<output>
				<port id="2" precision="FP32">
					<dim>1</dim>
					<dim>188</dim>
					<dim>1024</dim>
				</port>
			</output>
		</layer>
		<layer id="195" name="Constant_23372_compressed" type="Const" version="opset1">
			<data element_type="f16" shape="1, 1, 1024" offset="25510770" size="2048" />
			<output>
				<port id="0" precision="FP16">
					<dim>1</dim>
					<dim>1</dim>
					<dim>1024</dim>
				</port>
			</output>
		</layer>
		<layer id="196" name="Constant_23372" type="Convert" version="opset1">
			<data destination_type="f32" />
			<rt_info>
				<attribute name="decompression" version="0" />
			</rt_info>
			<input>
				<port id="0" precision="FP16">
					<dim>1</dim>
					<dim>1</dim>
					<dim>1024</dim>
				</port>
			</input>
			<output>
				<port id="1" precision="FP32">
					<dim>1</dim>
					<dim>1</dim>
					<dim>1024</dim>
				</port>
			</output>
		</layer>
		<layer id="197" name="/encoder/layers.0/norm_self_att/LayerNormalization" type="Add" version="opset1">
			<data auto_broadcast="numpy" />
			<input>
				<port id="0" precision="FP32">
					<dim>1</dim>
					<dim>188</dim>
					<dim>1024</dim>
				</port>
				<port id="1" precision="FP32">
					<dim>1</dim>
					<dim>1</dim>
					<dim>1024</dim>
				</port>
			</input>
			<output>
				<port id="2" precision="FP32" names="/encoder/layers.0/norm_self_att/LayerNormalization_output_0">
					<dim>1</dim>
					<dim>188</dim>
					<dim>1024</dim>
				</port>
			</output>
		</layer>
		<layer id="198" name="Transpose_19789_compressed" type="Const" version="opset1">
			<data element_type="f16" shape="1024, 1024" offset="25512818" size="2097152" />
			<output>
				<port id="0" precision="FP16">
					<dim>1024</dim>
					<dim>1024</dim>
				</port>
			</output>
		</layer>
		<layer id="199" name="Transpose_19789" type="Convert" version="opset1">
			<data destination_type="f32" />
			<rt_info>
				<attribute name="decompression" version="0" />
			</rt_info>
			<input>
				<port id="0" precision="FP16">
					<dim>1024</dim>
					<dim>1024</dim>
				</port>
			</input>
			<output>
				<port id="1" precision="FP32">
					<dim>1024</dim>
					<dim>1024</dim>
				</port>
			</output>
		</layer>
		<layer id="200" name="/encoder/layers.0/self_attn/linear_q/MatMul" type="MatMul" version="opset1">
			<data transpose_a="false" transpose_b="true" />
			<input>
				<port id="0" precision="FP32">
					<dim>1</dim>
					<dim>188</dim>
					<dim>1024</dim>
				</port>
				<port id="1" precision="FP32">
					<dim>1024</dim>
					<dim>1024</dim>
				</port>
			</input>
			<output>
				<port id="2" precision="FP32" names="/encoder/layers.0/self_attn/linear_q/MatMul_output_0">
					<dim>1</dim>
					<dim>188</dim>
					<dim>1024</dim>
				</port>
			</output>
		</layer>
		<layer id="201" name="/encoder/layers.0/self_attn/Constant" type="Const" version="opset1">
			<data element_type="i64" shape="4" offset="27609970" size="32" />
			<rt_info>
				<attribute name="precise" version="0" />
			</rt_info>
			<output>
				<port id="0" precision="I64" names="/encoder/layers.0/self_attn/Constant_output_0">
					<dim>4</dim>
				</port>
			</output>
		</layer>
		<layer id="202" name="/encoder/layers.0/self_attn/Reshape" type="Reshape" version="opset1">
			<data special_zero="true" />
			<input>
				<port id="0" precision="FP32">
					<dim>1</dim>
					<dim>188</dim>
					<dim>1024</dim>
				</port>
				<port id="1" precision="I64">
					<dim>4</dim>
				</port>
			</input>
			<output>
				<port id="2" precision="FP32" names="/encoder/layers.0/self_attn/Reshape_output_0">
					<dim>1</dim>
					<dim>188</dim>
					<dim>8</dim>
					<dim>128</dim>
				</port>
			</output>
		</layer>
		<layer id="203" name="Constant_23373_compressed" type="Const" version="opset1">
			<data element_type="f16" shape="1, 1, 8, 128" offset="27610002" size="2048" />
			<output>
				<port id="0" precision="FP16">
					<dim>1</dim>
					<dim>1</dim>
					<dim>8</dim>
					<dim>128</dim>
				</port>
			</output>
		</layer>
		<layer id="204" name="Constant_23373" type="Convert" version="opset1">
			<data destination_type="f32" />
			<rt_info>
				<attribute name="decompression" version="0" />
			</rt_info>
			<input>
				<port id="0" precision="FP16">
					<dim>1</dim>
					<dim>1</dim>
					<dim>8</dim>
					<dim>128</dim>
				</port>
			</input>
			<output>
				<port id="1" precision="FP32">
					<dim>1</dim>
					<dim>1</dim>
					<dim>8</dim>
					<dim>128</dim>
				</port>
			</output>
		</layer>
		<layer id="205" name="/encoder/layers.0/self_attn/Add" type="Add" version="opset1">
			<data auto_broadcast="numpy" />
			<input>
				<port id="0" precision="FP32">
					<dim>1</dim>
					<dim>188</dim>
					<dim>8</dim>
					<dim>128</dim>
				</port>
				<port id="1" precision="FP32">
					<dim>1</dim>
					<dim>1</dim>
					<dim>8</dim>
					<dim>128</dim>
				</port>
			</input>
			<output>
				<port id="2" precision="FP32" names="/encoder/layers.0/self_attn/Add_output_0">
					<dim>1</dim>
					<dim>188</dim>
					<dim>8</dim>
					<dim>128</dim>
				</port>
			</output>
		</layer>
		<layer id="206" name="Constant_1235" type="Const" version="opset1">
			<data element_type="i64" shape="4" offset="303374" size="32" />
			<output>
				<port id="0" precision="I64">
					<dim>4</dim>
				</port>
			</output>
		</layer>
		<layer id="207" name="/encoder/layers.0/self_attn/Transpose_1" type="Transpose" version="opset1">
			<input>
				<port id="0" precision="FP32">
					<dim>1</dim>
					<dim>188</dim>
					<dim>8</dim>
					<dim>128</dim>
				</port>
				<port id="1" precision="I64">
					<dim>4</dim>
				</port>
			</input>
			<output>
				<port id="2" precision="FP32" names="/encoder/layers.0/self_attn/Transpose_1_output_0">
					<dim>1</dim>
					<dim>8</dim>
					<dim>188</dim>
					<dim>128</dim>
				</port>
			</output>
		</layer>
		<layer id="208" name="Transpose_19794_compressed" type="Const" version="opset1">
			<data element_type="f16" shape="1024, 1024" offset="27612050" size="2097152" />
			<output>
				<port id="0" precision="FP16">
					<dim>1024</dim>
					<dim>1024</dim>
				</port>
			</output>
		</layer>
		<layer id="209" name="Transpose_19794" type="Convert" version="opset1">
			<data destination_type="f32" />
			<rt_info>
				<attribute name="decompression" version="0" />
			</rt_info>
			<input>
				<port id="0" precision="FP16">
					<dim>1024</dim>
					<dim>1024</dim>
				</port>
			</input>
			<output>
				<port id="1" precision="FP32">
					<dim>1024</dim>
					<dim>1024</dim>
				</port>
			</output>
		</layer>
		<layer id="210" name="/encoder/layers.0/self_attn/linear_k/MatMul" type="MatMul" version="opset1">
			<data transpose_a="false" transpose_b="true" />
			<input>
				<port id="0" precision="FP32">
					<dim>1</dim>
					<dim>188</dim>
					<dim>1024</dim>
				</port>
				<port id="1" precision="FP32">
					<dim>1024</dim>
					<dim>1024</dim>
				</port>
			</input>
			<output>
				<port id="2" precision="FP32" names="/encoder/layers.0/self_attn/linear_k/MatMul_output_0">
					<dim>1</dim>
					<dim>188</dim>
					<dim>1024</dim>
				</port>
			</output>
		</layer>
		<layer id="211" name="/encoder/layers.0/self_attn/Constant_1" type="Const" version="opset1">
			<data element_type="i64" shape="4" offset="27609970" size="32" />
			<rt_info>
				<attribute name="precise" version="0" />
			</rt_info>
			<output>
				<port id="0" precision="I64" names="/encoder/layers.0/self_attn/Constant_1_output_0">
					<dim>4</dim>
				</port>
			</output>
		</layer>
		<layer id="212" name="/encoder/layers.0/self_attn/Reshape_1" type="Reshape" version="opset1">
			<data special_zero="true" />
			<input>
				<port id="0" precision="FP32">
					<dim>1</dim>
					<dim>188</dim>
					<dim>1024</dim>
				</port>
				<port id="1" precision="I64">
					<dim>4</dim>
				</port>
			</input>
			<output>
				<port id="2" precision="FP32" names="/encoder/layers.0/self_attn/Reshape_1_output_0">
					<dim>1</dim>
					<dim>188</dim>
					<dim>8</dim>
					<dim>128</dim>
				</port>
			</output>
		</layer>
		<layer id="213" name="Constant_1279" type="Const" version="opset1">
			<data element_type="i64" shape="4" offset="29709202" size="32" />
			<output>
				<port id="0" precision="I64">
					<dim>4</dim>
				</port>
			</output>
		</layer>
		<layer id="214" name="/encoder/layers.0/self_attn/Transpose_5" type="Transpose" version="opset1">
			<input>
				<port id="0" precision="FP32">
					<dim>1</dim>
					<dim>188</dim>
					<dim>8</dim>
					<dim>128</dim>
				</port>
				<port id="1" precision="I64">
					<dim>4</dim>
				</port>
			</input>
			<output>
				<port id="2" precision="FP32" names="/encoder/layers.0/self_attn/Transpose_5_output_0">
					<dim>1</dim>
					<dim>8</dim>
					<dim>128</dim>
					<dim>188</dim>
				</port>
			</output>
		</layer>
		<layer id="215" name="/encoder/layers.0/self_attn/MatMul_1" type="MatMul" version="opset1">
			<data transpose_a="false" transpose_b="false" />
			<input>
				<port id="0" precision="FP32">
					<dim>1</dim>
					<dim>8</dim>
					<dim>188</dim>
					<dim>128</dim>
				</port>
				<port id="1" precision="FP32">
					<dim>1</dim>
					<dim>8</dim>
					<dim>128</dim>
					<dim>188</dim>
				</port>
			</input>
			<output>
				<port id="2" precision="FP32" names="/encoder/layers.0/self_attn/MatMul_1_output_0">
					<dim>1</dim>
					<dim>8</dim>
					<dim>188</dim>
					<dim>188</dim>
				</port>
			</output>
		</layer>
		<layer id="216" name="Constant_23374_compressed" type="Const" version="opset1">
			<data element_type="f16" shape="1, 1, 8, 128" offset="29709234" size="2048" />
			<output>
				<port id="0" precision="FP16">
					<dim>1</dim>
					<dim>1</dim>
					<dim>8</dim>
					<dim>128</dim>
				</port>
			</output>
		</layer>
		<layer id="217" name="Constant_23374" type="Convert" version="opset1">
			<data destination_type="f32" />
			<rt_info>
				<attribute name="decompression" version="0" />
			</rt_info>
			<input>
				<port id="0" precision="FP16">
					<dim>1</dim>
					<dim>1</dim>
					<dim>8</dim>
					<dim>128</dim>
				</port>
			</input>
			<output>
				<port id="1" precision="FP32">
					<dim>1</dim>
					<dim>1</dim>
					<dim>8</dim>
					<dim>128</dim>
				</port>
			</output>
		</layer>
		<layer id="218" name="/encoder/layers.0/self_attn/Add_1" type="Add" version="opset1">
			<data auto_broadcast="numpy" />
			<input>
				<port id="0" precision="FP32">
					<dim>1</dim>
					<dim>188</dim>
					<dim>8</dim>
					<dim>128</dim>
				</port>
				<port id="1" precision="FP32">
					<dim>1</dim>
					<dim>1</dim>
					<dim>8</dim>
					<dim>128</dim>
				</port>
			</input>
			<output>
				<port id="2" precision="FP32" names="/encoder/layers.0/self_attn/Add_1_output_0">
					<dim>1</dim>
					<dim>188</dim>
					<dim>8</dim>
					<dim>128</dim>
				</port>
			</output>
		</layer>
		<layer id="219" name="Constant_1238" type="Const" version="opset1">
			<data element_type="i64" shape="4" offset="303374" size="32" />
			<output>
				<port id="0" precision="I64">
					<dim>4</dim>
				</port>
			</output>
		</layer>
		<layer id="220" name="/encoder/layers.0/self_attn/Transpose_2" type="Transpose" version="opset1">
			<input>
				<port id="0" precision="FP32">
					<dim>1</dim>
					<dim>188</dim>
					<dim>8</dim>
					<dim>128</dim>
				</port>
				<port id="1" precision="I64">
					<dim>4</dim>
				</port>
			</input>
			<output>
				<port id="2" precision="FP32" names="/encoder/layers.0/self_attn/Transpose_2_output_0">
					<dim>1</dim>
					<dim>8</dim>
					<dim>188</dim>
					<dim>128</dim>
				</port>
			</output>
		</layer>
		<layer id="221" name="/encoder/layers.0/self_attn/Transpose_3_compressed" type="Const" version="opset1">
			<data element_type="f16" shape="1, 8, 128, 375" offset="29711282" size="768000" />
			<output>
				<port id="0" precision="FP16" names="/encoder/layers.0/self_attn/Transpose_3_output_0">
					<dim>1</dim>
					<dim>8</dim>
					<dim>128</dim>
					<dim>375</dim>
				</port>
			</output>
		</layer>
		<layer id="222" name="/encoder/layers.0/self_attn/Transpose_3" type="Convert" version="opset1">
			<data destination_type="f32" />
			<rt_info>
				<attribute name="decompression" version="0" />
			</rt_info>
			<input>
				<port id="0" precision="FP16">
					<dim>1</dim>
					<dim>8</dim>
					<dim>128</dim>
					<dim>375</dim>
				</port>
			</input>
			<output>
				<port id="1" precision="FP32">
					<dim>1</dim>
					<dim>8</dim>
					<dim>128</dim>
					<dim>375</dim>
				</port>
			</output>
		</layer>
		<layer id="223" name="/encoder/layers.0/self_attn/MatMul" type="MatMul" version="opset1">
			<data transpose_a="false" transpose_b="false" />
			<input>
				<port id="0" precision="FP32">
					<dim>1</dim>
					<dim>8</dim>
					<dim>188</dim>
					<dim>128</dim>
				</port>
				<port id="1" precision="FP32">
					<dim>1</dim>
					<dim>8</dim>
					<dim>128</dim>
					<dim>375</dim>
				</port>
			</input>
			<output>
				<port id="2" precision="FP32" names="/encoder/layers.0/self_attn/MatMul_output_0">
					<dim>1</dim>
					<dim>8</dim>
					<dim>188</dim>
					<dim>375</dim>
				</port>
			</output>
		</layer>
		<layer id="224" name="Split_1264.0" type="Const" version="opset1">
			<data element_type="i64" shape="4" offset="30479282" size="32" />
			<rt_info>
				<attribute name="precise" version="0" />
			</rt_info>
			<output>
				<port id="0" precision="I64">
					<dim>4</dim>
				</port>
			</output>
		</layer>
		<layer id="225" name="Split_1264.1" type="Const" version="opset1">
			<data element_type="i64" shape="4" offset="30479314" size="32" />
			<rt_info>
				<attribute name="precise" version="0" />
			</rt_info>
			<output>
				<port id="0" precision="I64">
					<dim>4</dim>
				</port>
			</output>
		</layer>
		<layer id="226" name="Constant_1262_compressed" type="Const" version="opset1">
			<data element_type="f16" shape="" offset="25508718" size="2" />
			<output>
				<port id="0" precision="FP16" />
			</output>
		</layer>
		<layer id="227" name="Constant_1262" type="Convert" version="opset1">
			<data destination_type="f32" />
			<rt_info>
				<attribute name="decompression" version="0" />
			</rt_info>
			<input>
				<port id="0" precision="FP16" />
			</input>
			<output>
				<port id="1" precision="FP32" />
			</output>
		</layer>
		<layer id="228" name="/encoder/layers.0/self_attn/Pad" type="Pad" version="opset12">
			<data pad_mode="constant" />
			<input>
				<port id="0" precision="FP32">
					<dim>1</dim>
					<dim>8</dim>
					<dim>188</dim>
					<dim>375</dim>
				</port>
				<port id="1" precision="I64">
					<dim>4</dim>
				</port>
				<port id="2" precision="I64">
					<dim>4</dim>
				</port>
				<port id="3" precision="FP32" />
			</input>
			<output>
				<port id="4" precision="FP32" names="/encoder/layers.0/self_attn/Pad_output_0">
					<dim>1</dim>
					<dim>8</dim>
					<dim>188</dim>
					<dim>376</dim>
				</port>
			</output>
		</layer>
		<layer id="229" name="/encoder/layers.0/self_attn/Constant_12" type="Const" version="opset1">
			<data element_type="i64" shape="4" offset="30479346" size="32" />
			<rt_info>
				<attribute name="precise" version="0" />
			</rt_info>
			<output>
				<port id="0" precision="I64" names="/encoder/layers.0/self_attn/Constant_12_output_0">
					<dim>4</dim>
				</port>
			</output>
		</layer>
		<layer id="230" name="/encoder/layers.0/self_attn/Reshape_6" type="Reshape" version="opset1">
			<data special_zero="true" />
			<input>
				<port id="0" precision="FP32">
					<dim>1</dim>
					<dim>8</dim>
					<dim>188</dim>
					<dim>376</dim>
				</port>
				<port id="1" precision="I64">
					<dim>4</dim>
				</port>
			</input>
			<output>
				<port id="2" precision="FP32" names="/encoder/layers.0/self_attn/Reshape_6_output_0">
					<dim>1</dim>
					<dim>8</dim>
					<dim>376</dim>
					<dim>188</dim>
				</port>
			</output>
		</layer>
		<layer id="231" name="/encoder/layers.0/self_attn/Constant_14" type="Const" version="opset1">
			<data element_type="i64" shape="1" offset="2078" size="8" />
			<output>
				<port id="0" precision="I64" names="/encoder/layers.0/self_attn/Constant_14_output_0">
					<dim>1</dim>
				</port>
			</output>
		</layer>
		<layer id="232" name="/encoder/layers.0/self_attn/Constant_15" type="Const" version="opset1">
			<data element_type="i64" shape="1" offset="30479378" size="8" />
			<output>
				<port id="0" precision="I64" names="/encoder/layers.0/self_attn/Constant_15_output_0">
					<dim>1</dim>
				</port>
			</output>
		</layer>
		<layer id="233" name="/encoder/layers.0/self_attn/Constant_16" type="Const" version="opset1">
			<data element_type="i64" shape="1" offset="2078" size="8" />
			<output>
				<port id="0" precision="I64" names="/encoder/layers.0/self_attn/Constant_16_output_0">
					<dim>1</dim>
				</port>
			</output>
		</layer>
		<layer id="234" name="/encoder/layers.0/self_attn/Constant_13" type="Const" version="opset1">
			<data element_type="i64" shape="1" offset="30479386" size="8" />
			<output>
				<port id="0" precision="I64" names="/encoder/layers.0/self_attn/Constant_13_output_0">
					<dim>1</dim>
				</port>
			</output>
		</layer>
		<layer id="235" name="/encoder/layers.0/self_attn/Slice_1" type="Slice" version="opset8">
			<input>
				<port id="0" precision="FP32">
					<dim>1</dim>
					<dim>8</dim>
					<dim>376</dim>
					<dim>188</dim>
				</port>
				<port id="1" precision="I64">
					<dim>1</dim>
				</port>
				<port id="2" precision="I64">
					<dim>1</dim>
				</port>
				<port id="3" precision="I64">
					<dim>1</dim>
				</port>
				<port id="4" precision="I64">
					<dim>1</dim>
				</port>
			</input>
			<output>
				<port id="5" precision="FP32" names="/encoder/layers.0/self_attn/Slice_1_output_0">
					<dim>1</dim>
					<dim>8</dim>
					<dim>375</dim>
					<dim>188</dim>
				</port>
			</output>
		</layer>
		<layer id="236" name="/encoder/layers.0/self_attn/Constant_17" type="Const" version="opset1">
			<data element_type="i64" shape="4" offset="30479394" size="32" />
			<rt_info>
				<attribute name="precise" version="0" />
			</rt_info>
			<output>
				<port id="0" precision="I64" names="/encoder/layers.0/self_attn/Constant_17_output_0">
					<dim>4</dim>
				</port>
			</output>
		</layer>
		<layer id="237" name="/encoder/layers.0/self_attn/Reshape_7" type="Reshape" version="opset1">
			<data special_zero="true" />
			<input>
				<port id="0" precision="FP32">
					<dim>1</dim>
					<dim>8</dim>
					<dim>375</dim>
					<dim>188</dim>
				</port>
				<port id="1" precision="I64">
					<dim>4</dim>
				</port>
			</input>
			<output>
				<port id="2" precision="FP32" names="/encoder/layers.0/self_attn/Reshape_7_output_0">
					<dim>1</dim>
					<dim>8</dim>
					<dim>188</dim>
					<dim>375</dim>
				</port>
			</output>
		</layer>
		<layer id="238" name="/encoder/layers.0/self_attn/Constant_19" type="Const" version="opset1">
			<data element_type="i64" shape="1" offset="30479426" size="8" />
			<output>
				<port id="0" precision="I64" names="/encoder/layers.0/self_attn/Constant_19_output_0">
					<dim>1</dim>
				</port>
			</output>
		</layer>
		<layer id="239" name="/encoder/layers.0/self_attn/Constant_20" type="Const" version="opset1">
			<data element_type="i64" shape="1" offset="30479434" size="8" />
			<output>
				<port id="0" precision="I64" names="/encoder/layers.0/self_attn/Constant_20_output_0">
					<dim>1</dim>
				</port>
			</output>
		</layer>
		<layer id="240" name="/encoder/layers.0/self_attn/Constant_21" type="Const" version="opset1">
			<data element_type="i64" shape="1" offset="2078" size="8" />
			<output>
				<port id="0" precision="I64" names="/encoder/layers.0/self_attn/Constant_21_output_0">
					<dim>1</dim>
				</port>
			</output>
		</layer>
		<layer id="241" name="/encoder/layers.0/self_attn/Constant_18" type="Const" version="opset1">
			<data element_type="i64" shape="1" offset="30479442" size="8" />
			<output>
				<port id="0" precision="I64" names="/encoder/layers.0/self_attn/Constant_18_output_0">
					<dim>1</dim>
				</port>
			</output>
		</layer>
		<layer id="242" name="/encoder/layers.0/self_attn/Slice_2" type="Slice" version="opset8">
			<input>
				<port id="0" precision="FP32">
					<dim>1</dim>
					<dim>8</dim>
					<dim>188</dim>
					<dim>375</dim>
				</port>
				<port id="1" precision="I64">
					<dim>1</dim>
				</port>
				<port id="2" precision="I64">
					<dim>1</dim>
				</port>
				<port id="3" precision="I64">
					<dim>1</dim>
				</port>
				<port id="4" precision="I64">
					<dim>1</dim>
				</port>
			</input>
			<output>
				<port id="5" precision="FP32" names="/encoder/layers.0/self_attn/Slice_2_output_0">
					<dim>1</dim>
					<dim>8</dim>
					<dim>188</dim>
					<dim>188</dim>
				</port>
			</output>
		</layer>
		<layer id="243" name="/encoder/layers.0/self_attn/Add_2" type="Add" version="opset1">
			<data auto_broadcast="numpy" />
			<input>
				<port id="0" precision="FP32">
					<dim>1</dim>
					<dim>8</dim>
					<dim>188</dim>
					<dim>188</dim>
				</port>
				<port id="1" precision="FP32">
					<dim>1</dim>
					<dim>8</dim>
					<dim>188</dim>
					<dim>188</dim>
				</port>
			</input>
			<output>
				<port id="2" precision="FP32" names="/encoder/layers.0/self_attn/Add_2_output_0">
					<dim>1</dim>
					<dim>8</dim>
					<dim>188</dim>
					<dim>188</dim>
				</port>
			</output>
		</layer>
		<layer id="244" name="Constant_23375_compressed" type="Const" version="opset1">
			<data element_type="f16" shape="1, 1, 1, 1" offset="30479450" size="2" />
			<output>
				<port id="0" precision="FP16">
					<dim>1</dim>
					<dim>1</dim>
					<dim>1</dim>
					<dim>1</dim>
				</port>
			</output>
		</layer>
		<layer id="245" name="Constant_23375" type="Convert" version="opset1">
			<data destination_type="f32" />
			<rt_info>
				<attribute name="decompression" version="0" />
			</rt_info>
			<input>
				<port id="0" precision="FP16">
					<dim>1</dim>
					<dim>1</dim>
					<dim>1</dim>
					<dim>1</dim>
				</port>
			</input>
			<output>
				<port id="1" precision="FP32">
					<dim>1</dim>
					<dim>1</dim>
					<dim>1</dim>
					<dim>1</dim>
				</port>
			</output>
		</layer>
		<layer id="246" name="/encoder/layers.0/self_attn/Div" type="Multiply" version="opset1">
			<data auto_broadcast="numpy" />
			<input>
				<port id="0" precision="FP32">
					<dim>1</dim>
					<dim>8</dim>
					<dim>188</dim>
					<dim>188</dim>
				</port>
				<port id="1" precision="FP32">
					<dim>1</dim>
					<dim>1</dim>
					<dim>1</dim>
					<dim>1</dim>
				</port>
			</input>
			<output>
				<port id="2" precision="FP32" names="/encoder/layers.0/self_attn/Div_output_0">
					<dim>1</dim>
					<dim>8</dim>
					<dim>188</dim>
					<dim>188</dim>
				</port>
			</output>
		</layer>
		<layer id="247" name="/encoder/layers.0/self_attn/Where" type="Select" version="opset1">
			<data auto_broadcast="numpy" />
			<input>
				<port id="0" precision="BOOL">
					<dim>1</dim>
					<dim>1</dim>
					<dim>188</dim>
					<dim>188</dim>
				</port>
				<port id="1" precision="FP32" />
				<port id="2" precision="FP32">
					<dim>1</dim>
					<dim>8</dim>
					<dim>188</dim>
					<dim>188</dim>
				</port>
			</input>
			<output>
				<port id="3" precision="FP32" names="/encoder/layers.0/self_attn/Where_output_0">
					<dim>1</dim>
					<dim>8</dim>
					<dim>188</dim>
					<dim>188</dim>
				</port>
			</output>
		</layer>
		<layer id="248" name="/encoder/layers.0/self_attn/Softmax" type="SoftMax" version="opset8">
			<data axis="-1" />
			<input>
				<port id="0" precision="FP32">
					<dim>1</dim>
					<dim>8</dim>
					<dim>188</dim>
					<dim>188</dim>
				</port>
			</input>
			<output>
				<port id="1" precision="FP32" names="/encoder/layers.0/self_attn/Softmax_output_0">
					<dim>1</dim>
					<dim>8</dim>
					<dim>188</dim>
					<dim>188</dim>
				</port>
			</output>
		</layer>
		<layer id="249" name="/encoder/layers.0/self_attn/Where_1" type="Select" version="opset1">
			<data auto_broadcast="numpy" />
			<input>
				<port id="0" precision="BOOL">
					<dim>1</dim>
					<dim>1</dim>
					<dim>188</dim>
					<dim>188</dim>
				</port>
				<port id="1" precision="FP32" />
				<port id="2" precision="FP32">
					<dim>1</dim>
					<dim>8</dim>
					<dim>188</dim>
					<dim>188</dim>
				</port>
			</input>
			<output>
				<port id="3" precision="FP32" names="/encoder/layers.0/self_attn/Where_1_output_0">
					<dim>1</dim>
					<dim>8</dim>
					<dim>188</dim>
					<dim>188</dim>
				</port>
			</output>
		</layer>
		<layer id="250" name="Transpose_19803_compressed" type="Const" version="opset1">
			<data element_type="f16" shape="1024, 1024" offset="30479452" size="2097152" />
			<output>
				<port id="0" precision="FP16">
					<dim>1024</dim>
					<dim>1024</dim>
				</port>
			</output>
		</layer>
		<layer id="251" name="Transpose_19803" type="Convert" version="opset1">
			<data destination_type="f32" />
			<rt_info>
				<attribute name="decompression" version="0" />
			</rt_info>
			<input>
				<port id="0" precision="FP16">
					<dim>1024</dim>
					<dim>1024</dim>
				</port>
			</input>
			<output>
				<port id="1" precision="FP32">
					<dim>1024</dim>
					<dim>1024</dim>
				</port>
			</output>
		</layer>
		<layer id="252" name="/encoder/layers.0/self_attn/linear_v/MatMul" type="MatMul" version="opset1">
			<data transpose_a="false" transpose_b="true" />
			<input>
				<port id="0" precision="FP32">
					<dim>1</dim>
					<dim>188</dim>
					<dim>1024</dim>
				</port>
				<port id="1" precision="FP32">
					<dim>1024</dim>
					<dim>1024</dim>
				</port>
			</input>
			<output>
				<port id="2" precision="FP32" names="/encoder/layers.0/self_attn/linear_v/MatMul_output_0">
					<dim>1</dim>
					<dim>188</dim>
					<dim>1024</dim>
				</port>
			</output>
		</layer>
		<layer id="253" name="/encoder/layers.0/self_attn/Constant_2" type="Const" version="opset1">
			<data element_type="i64" shape="4" offset="27609970" size="32" />
			<rt_info>
				<attribute name="precise" version="0" />
			</rt_info>
			<output>
				<port id="0" precision="I64" names="/encoder/layers.0/self_attn/Constant_2_output_0">
					<dim>4</dim>
				</port>
			</output>
		</layer>
		<layer id="254" name="/encoder/layers.0/self_attn/Reshape_2" type="Reshape" version="opset1">
			<data special_zero="true" />
			<input>
				<port id="0" precision="FP32">
					<dim>1</dim>
					<dim>188</dim>
					<dim>1024</dim>
				</port>
				<port id="1" precision="I64">
					<dim>4</dim>
				</port>
			</input>
			<output>
				<port id="2" precision="FP32" names="/encoder/layers.0/self_attn/Reshape_2_output_0">
					<dim>1</dim>
					<dim>188</dim>
					<dim>8</dim>
					<dim>128</dim>
				</port>
			</output>
		</layer>
		<layer id="255" name="Constant_1205" type="Const" version="opset1">
			<data element_type="i64" shape="4" offset="303374" size="32" />
			<output>
				<port id="0" precision="I64">
					<dim>4</dim>
				</port>
			</output>
		</layer>
		<layer id="256" name="/encoder/layers.0/self_attn/Transpose" type="Transpose" version="opset1">
			<input>
				<port id="0" precision="FP32">
					<dim>1</dim>
					<dim>188</dim>
					<dim>8</dim>
					<dim>128</dim>
				</port>
				<port id="1" precision="I64">
					<dim>4</dim>
				</port>
			</input>
			<output>
				<port id="2" precision="FP32" names="/encoder/layers.0/self_attn/Transpose_output_0">
					<dim>1</dim>
					<dim>8</dim>
					<dim>188</dim>
					<dim>128</dim>
				</port>
			</output>
		</layer>
		<layer id="257" name="/encoder/layers.0/self_attn/MatMul_2" type="MatMul" version="opset1">
			<data transpose_a="false" transpose_b="false" />
			<input>
				<port id="0" precision="FP32">
					<dim>1</dim>
					<dim>8</dim>
					<dim>188</dim>
					<dim>188</dim>
				</port>
				<port id="1" precision="FP32">
					<dim>1</dim>
					<dim>8</dim>
					<dim>188</dim>
					<dim>128</dim>
				</port>
			</input>
			<output>
				<port id="2" precision="FP32" names="/encoder/layers.0/self_attn/MatMul_2_output_0">
					<dim>1</dim>
					<dim>8</dim>
					<dim>188</dim>
					<dim>128</dim>
				</port>
			</output>
		</layer>
		<layer id="258" name="Constant_1300" type="Const" version="opset1">
			<data element_type="i64" shape="4" offset="303374" size="32" />
			<output>
				<port id="0" precision="I64">
					<dim>4</dim>
				</port>
			</output>
		</layer>
		<layer id="259" name="/encoder/layers.0/self_attn/Transpose_6" type="Transpose" version="opset1">
			<input>
				<port id="0" precision="FP32">
					<dim>1</dim>
					<dim>8</dim>
					<dim>188</dim>
					<dim>128</dim>
				</port>
				<port id="1" precision="I64">
					<dim>4</dim>
				</port>
			</input>
			<output>
				<port id="2" precision="FP32" names="/encoder/layers.0/self_attn/Transpose_6_output_0">
					<dim>1</dim>
					<dim>188</dim>
					<dim>8</dim>
					<dim>128</dim>
				</port>
			</output>
		</layer>
		<layer id="260" name="/encoder/layers.0/self_attn/Constant_26" type="Const" version="opset1">
			<data element_type="i64" shape="3" offset="32576604" size="24" />
			<rt_info>
				<attribute name="precise" version="0" />
			</rt_info>
			<output>
				<port id="0" precision="I64" names="/encoder/layers.0/self_attn/Constant_26_output_0">
					<dim>3</dim>
				</port>
			</output>
		</layer>
		<layer id="261" name="/encoder/layers.0/self_attn/Reshape_8" type="Reshape" version="opset1">
			<data special_zero="true" />
			<input>
				<port id="0" precision="FP32">
					<dim>1</dim>
					<dim>188</dim>
					<dim>8</dim>
					<dim>128</dim>
				</port>
				<port id="1" precision="I64">
					<dim>3</dim>
				</port>
			</input>
			<output>
				<port id="2" precision="FP32" names="/encoder/layers.0/self_attn/Reshape_8_output_0">
					<dim>1</dim>
					<dim>188</dim>
					<dim>1024</dim>
				</port>
			</output>
		</layer>
		<layer id="262" name="Transpose_19806_compressed" type="Const" version="opset1">
			<data element_type="f16" shape="1024, 1024" offset="32576628" size="2097152" />
			<output>
				<port id="0" precision="FP16">
					<dim>1024</dim>
					<dim>1024</dim>
				</port>
			</output>
		</layer>
		<layer id="263" name="Transpose_19806" type="Convert" version="opset1">
			<data destination_type="f32" />
			<rt_info>
				<attribute name="decompression" version="0" />
			</rt_info>
			<input>
				<port id="0" precision="FP16">
					<dim>1024</dim>
					<dim>1024</dim>
				</port>
			</input>
			<output>
				<port id="1" precision="FP32">
					<dim>1024</dim>
					<dim>1024</dim>
				</port>
			</output>
		</layer>
		<layer id="264" name="/encoder/layers.0/self_attn/linear_out/MatMul" type="MatMul" version="opset1">
			<data transpose_a="false" transpose_b="true" />
			<input>
				<port id="0" precision="FP32">
					<dim>1</dim>
					<dim>188</dim>
					<dim>1024</dim>
				</port>
				<port id="1" precision="FP32">
					<dim>1024</dim>
					<dim>1024</dim>
				</port>
			</input>
			<output>
				<port id="2" precision="FP32" names="/encoder/layers.0/self_attn/linear_out/MatMul_output_0">
					<dim>1</dim>
					<dim>188</dim>
					<dim>1024</dim>
				</port>
			</output>
		</layer>
		<layer id="265" name="/encoder/layers.0/Add_1" type="Add" version="opset1">
			<data auto_broadcast="numpy" />
			<input>
				<port id="0" precision="FP32">
					<dim>1</dim>
					<dim>188</dim>
					<dim>1024</dim>
				</port>
				<port id="1" precision="FP32">
					<dim>1</dim>
					<dim>188</dim>
					<dim>1024</dim>
				</port>
			</input>
			<output>
				<port id="2" precision="FP32" names="/encoder/layers.0/Add_1_output_0">
					<dim>1</dim>
					<dim>188</dim>
					<dim>1024</dim>
				</port>
			</output>
		</layer>
		<layer id="266" name="/encoder/Not_1" type="LogicalNot" version="opset1">
			<input>
				<port id="0" precision="BOOL">
					<dim>1</dim>
					<dim>188</dim>
				</port>
			</input>
			<output>
				<port id="1" precision="BOOL" names="/encoder/Not_1_output_0">
					<dim>1</dim>
					<dim>188</dim>
				</port>
			</output>
		</layer>
		<layer id="267" name="/encoder/layers.0/conv/Constant" type="Const" version="opset1">
			<data element_type="i64" shape="1" offset="2078" size="8" />
			<output>
				<port id="0" precision="I64" names="/encoder/layers.0/conv/Constant_output_0">
					<dim>1</dim>
				</port>
			</output>
		</layer>
		<layer id="268" name="/encoder/layers.0/conv/Unsqueeze" type="Unsqueeze" version="opset1">
			<input>
				<port id="0" precision="BOOL">
					<dim>1</dim>
					<dim>188</dim>
				</port>
				<port id="1" precision="I64">
					<dim>1</dim>
				</port>
			</input>
			<output>
				<port id="2" precision="BOOL" names="/encoder/layers.0/conv/Cast_output_0,/encoder/layers.0/conv/Unsqueeze_output_0,/encoder/layers.1/conv/Cast_output_0,/encoder/layers.10/conv/Cast_output_0,/encoder/layers.11/conv/Cast_output_0,/encoder/layers.12/conv/Cast_output_0,/encoder/layers.13/conv/Cast_output_0,/encoder/layers.14/conv/Cast_output_0,/encoder/layers.15/conv/Cast_output_0,/encoder/layers.16/conv/Cast_output_0,/encoder/layers.17/conv/Cast_output_0,/encoder/layers.18/conv/Cast_output_0,/encoder/layers.19/conv/Cast_output_0,/encoder/layers.2/conv/Cast_output_0,/encoder/layers.20/conv/Cast_output_0,/encoder/layers.21/conv/Cast_output_0,/encoder/layers.22/conv/Cast_output_0,/encoder/layers.23/conv/Cast_output_0,/encoder/layers.3/conv/Cast_output_0,/encoder/layers.4/conv/Cast_output_0,/encoder/layers.5/conv/Cast_output_0,/encoder/layers.6/conv/Cast_output_0,/encoder/layers.7/conv/Cast_output_0,/encoder/layers.8/conv/Cast_output_0,/encoder/layers.9/conv/Cast_output_0">
					<dim>1</dim>
					<dim>1</dim>
					<dim>188</dim>
				</port>
			</output>
		</layer>
		<layer id="269" name="/encoder/layers.0/conv/Constant_1_compressed" type="Const" version="opset1">
			<data element_type="f16" shape="" offset="25508718" size="2" />
			<output>
				<port id="0" precision="FP16" names="/encoder/layers.0/conv/Constant_1_output_0" />
			</output>
		</layer>
		<layer id="270" name="/encoder/layers.0/conv/Constant_1" type="Convert" version="opset1">
			<data destination_type="f32" />
			<rt_info>
				<attribute name="decompression" version="0" />
			</rt_info>
			<input>
				<port id="0" precision="FP16" />
			</input>
			<output>
				<port id="1" precision="FP32" />
			</output>
		</layer>
		<layer id="271" name="Range_1309" type="Const" version="opset1">
			<data element_type="i64" shape="1" offset="14094" size="8" />
			<output>
				<port id="0" precision="I64">
					<dim>1</dim>
				</port>
			</output>
		</layer>
		<layer id="272" name="MVN_1310" type="MVN" version="opset6">
			<data eps="9.9999997473787516e-06" normalize_variance="true" eps_mode="INSIDE_SQRT" />
			<input>
				<port id="0" precision="FP32">
					<dim>1</dim>
					<dim>188</dim>
					<dim>1024</dim>
				</port>
				<port id="1" precision="I64">
					<dim>1</dim>
				</port>
			</input>
			<output>
				<port id="2" precision="FP32">
					<dim>1</dim>
					<dim>188</dim>
					<dim>1024</dim>
				</port>
			</output>
		</layer>
		<layer id="273" name="Constant_23376_compressed" type="Const" version="opset1">
			<data element_type="f16" shape="1, 1, 1024" offset="34673780" size="2048" />
			<output>
				<port id="0" precision="FP16">
					<dim>1</dim>
					<dim>1</dim>
					<dim>1024</dim>
				</port>
			</output>
		</layer>
		<layer id="274" name="Constant_23376" type="Convert" version="opset1">
			<data destination_type="f32" />
			<rt_info>
				<attribute name="decompression" version="0" />
			</rt_info>
			<input>
				<port id="0" precision="FP16">
					<dim>1</dim>
					<dim>1</dim>
					<dim>1024</dim>
				</port>
			</input>
			<output>
				<port id="1" precision="FP32">
					<dim>1</dim>
					<dim>1</dim>
					<dim>1024</dim>
				</port>
			</output>
		</layer>
		<layer id="275" name="Multiply_1311" type="Multiply" version="opset1">
			<data auto_broadcast="numpy" />
			<input>
				<port id="0" precision="FP32">
					<dim>1</dim>
					<dim>188</dim>
					<dim>1024</dim>
				</port>
				<port id="1" precision="FP32">
					<dim>1</dim>
					<dim>1</dim>
					<dim>1024</dim>
				</port>
			</input>
			<output>
				<port id="2" precision="FP32">
					<dim>1</dim>
					<dim>188</dim>
					<dim>1024</dim>
				</port>
			</output>
		</layer>
		<layer id="276" name="Constant_23377_compressed" type="Const" version="opset1">
			<data element_type="f16" shape="1, 1, 1024" offset="34675828" size="2048" />
			<output>
				<port id="0" precision="FP16">
					<dim>1</dim>
					<dim>1</dim>
					<dim>1024</dim>
				</port>
			</output>
		</layer>
		<layer id="277" name="Constant_23377" type="Convert" version="opset1">
			<data destination_type="f32" />
			<rt_info>
				<attribute name="decompression" version="0" />
			</rt_info>
			<input>
				<port id="0" precision="FP16">
					<dim>1</dim>
					<dim>1</dim>
					<dim>1024</dim>
				</port>
			</input>
			<output>
				<port id="1" precision="FP32">
					<dim>1</dim>
					<dim>1</dim>
					<dim>1024</dim>
				</port>
			</output>
		</layer>
		<layer id="278" name="/encoder/layers.0/norm_conv/LayerNormalization" type="Add" version="opset1">
			<data auto_broadcast="numpy" />
			<input>
				<port id="0" precision="FP32">
					<dim>1</dim>
					<dim>188</dim>
					<dim>1024</dim>
				</port>
				<port id="1" precision="FP32">
					<dim>1</dim>
					<dim>1</dim>
					<dim>1024</dim>
				</port>
			</input>
			<output>
				<port id="2" precision="FP32" names="/encoder/layers.0/norm_conv/LayerNormalization_output_0">
					<dim>1</dim>
					<dim>188</dim>
					<dim>1024</dim>
				</port>
			</output>
		</layer>
		<layer id="279" name="Constant_1313" type="Const" version="opset1">
			<data element_type="i64" shape="3" offset="2054" size="24" />
			<output>
				<port id="0" precision="I64">
					<dim>3</dim>
				</port>
			</output>
		</layer>
		<layer id="280" name="/encoder/layers.0/conv/Transpose" type="Transpose" version="opset1">
			<input>
				<port id="0" precision="FP32">
					<dim>1</dim>
					<dim>188</dim>
					<dim>1024</dim>
				</port>
				<port id="1" precision="I64">
					<dim>3</dim>
				</port>
			</input>
			<output>
				<port id="2" precision="FP32" names="/encoder/layers.0/conv/Transpose_output_0">
					<dim>1</dim>
					<dim>1024</dim>
					<dim>188</dim>
				</port>
			</output>
		</layer>
		<layer id="281" name="encoder.layers.0.conv.pointwise_conv1.weight_compressed" type="Const" version="opset1">
			<data element_type="f16" shape="2048, 1024, 1" offset="34677876" size="4194304" />
			<output>
				<port id="0" precision="FP16" names="encoder.layers.0.conv.pointwise_conv1.weight">
					<dim>2048</dim>
					<dim>1024</dim>
					<dim>1</dim>
				</port>
			</output>
		</layer>
		<layer id="282" name="encoder.layers.0.conv.pointwise_conv1.weight" type="Convert" version="opset1">
			<data destination_type="f32" />
			<rt_info>
				<attribute name="decompression" version="0" />
			</rt_info>
			<input>
				<port id="0" precision="FP16">
					<dim>2048</dim>
					<dim>1024</dim>
					<dim>1</dim>
				</port>
			</input>
			<output>
				<port id="1" precision="FP32">
					<dim>2048</dim>
					<dim>1024</dim>
					<dim>1</dim>
				</port>
			</output>
		</layer>
		<layer id="283" name="/encoder/layers.0/conv/pointwise_conv1/Conv" type="Convolution" version="opset1">
			<data strides="1" dilations="1" pads_begin="0" pads_end="0" auto_pad="explicit" />
			<input>
				<port id="0" precision="FP32">
					<dim>1</dim>
					<dim>1024</dim>
					<dim>188</dim>
				</port>
				<port id="1" precision="FP32">
					<dim>2048</dim>
					<dim>1024</dim>
					<dim>1</dim>
				</port>
			</input>
			<output>
				<port id="2" precision="FP32" names="/encoder/layers.0/conv/pointwise_conv1/Conv_output_0">
					<dim>1</dim>
					<dim>2048</dim>
					<dim>188</dim>
				</port>
			</output>
		</layer>
		<layer id="284" name="Constant_1317" type="Const" version="opset1">
			<data element_type="i64" shape="" offset="2078" size="8" />
			<output>
				<port id="0" precision="I64" />
			</output>
		</layer>
		<layer id="285" name="/encoder/layers.0/conv/Split" type="Split" version="opset1">
			<data num_splits="2" />
			<input>
				<port id="0" precision="FP32">
					<dim>1</dim>
					<dim>2048</dim>
					<dim>188</dim>
				</port>
				<port id="1" precision="I64" />
			</input>
			<output>
				<port id="2" precision="FP32" names="/encoder/layers.0/conv/Split_output_0">
					<dim>1</dim>
					<dim>1024</dim>
					<dim>188</dim>
				</port>
				<port id="3" precision="FP32" names="/encoder/layers.0/conv/Split_output_1">
					<dim>1</dim>
					<dim>1024</dim>
					<dim>188</dim>
				</port>
			</output>
		</layer>
		<layer id="286" name="/encoder/layers.0/conv/Sigmoid" type="Sigmoid" version="opset1">
			<input>
				<port id="0" precision="FP32">
					<dim>1</dim>
					<dim>1024</dim>
					<dim>188</dim>
				</port>
			</input>
			<output>
				<port id="1" precision="FP32" names="/encoder/layers.0/conv/Sigmoid_output_0">
					<dim>1</dim>
					<dim>1024</dim>
					<dim>188</dim>
				</port>
			</output>
		</layer>
		<layer id="287" name="/encoder/layers.0/conv/Mul" type="Multiply" version="opset1">
			<data auto_broadcast="numpy" />
			<input>
				<port id="0" precision="FP32">
					<dim>1</dim>
					<dim>1024</dim>
					<dim>188</dim>
				</port>
				<port id="1" precision="FP32">
					<dim>1</dim>
					<dim>1024</dim>
					<dim>188</dim>
				</port>
			</input>
			<output>
				<port id="2" precision="FP32" names="/encoder/layers.0/conv/Mul_output_0">
					<dim>1</dim>
					<dim>1024</dim>
					<dim>188</dim>
				</port>
			</output>
		</layer>
		<layer id="288" name="/encoder/layers.0/conv/Where" type="Select" version="opset1">
			<data auto_broadcast="numpy" />
			<input>
				<port id="0" precision="BOOL">
					<dim>1</dim>
					<dim>1</dim>
					<dim>188</dim>
				</port>
				<port id="1" precision="FP32" />
				<port id="2" precision="FP32">
					<dim>1</dim>
					<dim>1024</dim>
					<dim>188</dim>
				</port>
			</input>
			<output>
				<port id="3" precision="FP32" names="/encoder/layers.0/conv/Where_output_0">
					<dim>1</dim>
					<dim>1024</dim>
					<dim>188</dim>
				</port>
			</output>
		</layer>
		<layer id="289" name="Reshape_1360_compressed" type="Const" version="opset1">
			<data element_type="f16" shape="1024, 1, 1, 9" offset="38872180" size="18432" />
			<output>
				<port id="0" precision="FP16">
					<dim>1024</dim>
					<dim>1</dim>
					<dim>1</dim>
					<dim>9</dim>
				</port>
			</output>
		</layer>
		<layer id="290" name="Reshape_1360" type="Convert" version="opset1">
			<data destination_type="f32" />
			<rt_info>
				<attribute name="decompression" version="0" />
			</rt_info>
			<input>
				<port id="0" precision="FP16">
					<dim>1024</dim>
					<dim>1</dim>
					<dim>1</dim>
					<dim>9</dim>
				</port>
			</input>
			<output>
				<port id="1" precision="FP32">
					<dim>1024</dim>
					<dim>1</dim>
					<dim>1</dim>
					<dim>9</dim>
				</port>
			</output>
		</layer>
		<layer id="291" name="/encoder/layers.0/conv/depthwise_conv/Conv/WithoutBiases" type="GroupConvolution" version="opset1">
			<data strides="1" pads_begin="4" pads_end="4" dilations="1" auto_pad="explicit" />
			<input>
				<port id="0" precision="FP32">
					<dim>1</dim>
					<dim>1024</dim>
					<dim>188</dim>
				</port>
				<port id="1" precision="FP32">
					<dim>1024</dim>
					<dim>1</dim>
					<dim>1</dim>
					<dim>9</dim>
				</port>
			</input>
			<output>
				<port id="2" precision="FP32">
					<dim>1</dim>
					<dim>1024</dim>
					<dim>188</dim>
				</port>
			</output>
		</layer>
		<layer id="292" name="Reshape_1410_compressed" type="Const" version="opset1">
			<data element_type="f16" shape="1, 1024, 1" offset="38890612" size="2048" />
			<output>
				<port id="0" precision="FP16">
					<dim>1</dim>
					<dim>1024</dim>
					<dim>1</dim>
				</port>
			</output>
		</layer>
		<layer id="293" name="Reshape_1410" type="Convert" version="opset1">
			<data destination_type="f32" />
			<rt_info>
				<attribute name="decompression" version="0" />
			</rt_info>
			<input>
				<port id="0" precision="FP16">
					<dim>1</dim>
					<dim>1024</dim>
					<dim>1</dim>
				</port>
			</input>
			<output>
				<port id="1" precision="FP32">
					<dim>1</dim>
					<dim>1024</dim>
					<dim>1</dim>
				</port>
			</output>
		</layer>
		<layer id="294" name="/encoder/layers.0/conv/depthwise_conv/Conv" type="Add" version="opset1">
			<data auto_broadcast="numpy" />
			<input>
				<port id="0" precision="FP32">
					<dim>1</dim>
					<dim>1024</dim>
					<dim>188</dim>
				</port>
				<port id="1" precision="FP32">
					<dim>1</dim>
					<dim>1024</dim>
					<dim>1</dim>
				</port>
			</input>
			<output>
				<port id="2" precision="FP32" names="/encoder/layers.0/conv/depthwise_conv/Conv_output_0">
					<dim>1</dim>
					<dim>1024</dim>
					<dim>188</dim>
				</port>
			</output>
		</layer>
		<layer id="295" name="/encoder/layers.0/conv/activation/Mul" type="Swish" version="opset4">
			<input>
				<port id="0" precision="FP32">
					<dim>1</dim>
					<dim>1024</dim>
					<dim>188</dim>
				</port>
			</input>
			<output>
				<port id="1" precision="FP32" names="/encoder/layers.0/conv/activation/Mul_output_0">
					<dim>1</dim>
					<dim>1024</dim>
					<dim>188</dim>
				</port>
			</output>
		</layer>
		<layer id="296" name="encoder.layers.0.conv.pointwise_conv2.weight_compressed" type="Const" version="opset1">
			<data element_type="f16" shape="1024, 1024, 1" offset="38892660" size="2097152" />
			<output>
				<port id="0" precision="FP16" names="encoder.layers.0.conv.pointwise_conv2.weight">
					<dim>1024</dim>
					<dim>1024</dim>
					<dim>1</dim>
				</port>
			</output>
		</layer>
		<layer id="297" name="encoder.layers.0.conv.pointwise_conv2.weight" type="Convert" version="opset1">
			<data destination_type="f32" />
			<rt_info>
				<attribute name="decompression" version="0" />
			</rt_info>
			<input>
				<port id="0" precision="FP16">
					<dim>1024</dim>
					<dim>1024</dim>
					<dim>1</dim>
				</port>
			</input>
			<output>
				<port id="1" precision="FP32">
					<dim>1024</dim>
					<dim>1024</dim>
					<dim>1</dim>
				</port>
			</output>
		</layer>
		<layer id="298" name="/encoder/layers.0/conv/pointwise_conv2/Conv" type="Convolution" version="opset1">
			<data strides="1" dilations="1" pads_begin="0" pads_end="0" auto_pad="explicit" />
			<input>
				<port id="0" precision="FP32">
					<dim>1</dim>
					<dim>1024</dim>
					<dim>188</dim>
				</port>
				<port id="1" precision="FP32">
					<dim>1024</dim>
					<dim>1024</dim>
					<dim>1</dim>
				</port>
			</input>
			<output>
				<port id="2" precision="FP32" names="/encoder/layers.0/conv/pointwise_conv2/Conv_output_0">
					<dim>1</dim>
					<dim>1024</dim>
					<dim>188</dim>
				</port>
			</output>
		</layer>
		<layer id="299" name="Constant_1416" type="Const" version="opset1">
			<data element_type="i64" shape="3" offset="2054" size="24" />
			<output>
				<port id="0" precision="I64">
					<dim>3</dim>
				</port>
			</output>
		</layer>
		<layer id="300" name="/encoder/layers.0/conv/Transpose_1" type="Transpose" version="opset1">
			<input>
				<port id="0" precision="FP32">
					<dim>1</dim>
					<dim>1024</dim>
					<dim>188</dim>
				</port>
				<port id="1" precision="I64">
					<dim>3</dim>
				</port>
			</input>
			<output>
				<port id="2" precision="FP32" names="/encoder/layers.0/conv/Transpose_1_output_0">
					<dim>1</dim>
					<dim>188</dim>
					<dim>1024</dim>
				</port>
			</output>
		</layer>
		<layer id="301" name="/encoder/layers.0/Add_2" type="Add" version="opset1">
			<data auto_broadcast="numpy" />
			<input>
				<port id="0" precision="FP32">
					<dim>1</dim>
					<dim>188</dim>
					<dim>1024</dim>
				</port>
				<port id="1" precision="FP32">
					<dim>1</dim>
					<dim>188</dim>
					<dim>1024</dim>
				</port>
			</input>
			<output>
				<port id="2" precision="FP32" names="/encoder/layers.0/Add_2_output_0">
					<dim>1</dim>
					<dim>188</dim>
					<dim>1024</dim>
				</port>
			</output>
		</layer>
		<layer id="302" name="Range_1422" type="Const" version="opset1">
			<data element_type="i64" shape="1" offset="14094" size="8" />
			<output>
				<port id="0" precision="I64">
					<dim>1</dim>
				</port>
			</output>
		</layer>
		<layer id="303" name="MVN_1423" type="MVN" version="opset6">
			<data eps="9.9999997473787516e-06" normalize_variance="true" eps_mode="INSIDE_SQRT" />
			<input>
				<port id="0" precision="FP32">
					<dim>1</dim>
					<dim>188</dim>
					<dim>1024</dim>
				</port>
				<port id="1" precision="I64">
					<dim>1</dim>
				</port>
			</input>
			<output>
				<port id="2" precision="FP32">
					<dim>1</dim>
					<dim>188</dim>
					<dim>1024</dim>
				</port>
			</output>
		</layer>
		<layer id="304" name="Constant_23378_compressed" type="Const" version="opset1">
			<data element_type="f16" shape="1, 1, 1024" offset="40989812" size="2048" />
			<output>
				<port id="0" precision="FP16">
					<dim>1</dim>
					<dim>1</dim>
					<dim>1024</dim>
				</port>
			</output>
		</layer>
		<layer id="305" name="Constant_23378" type="Convert" version="opset1">
			<data destination_type="f32" />
			<rt_info>
				<attribute name="decompression" version="0" />
			</rt_info>
			<input>
				<port id="0" precision="FP16">
					<dim>1</dim>
					<dim>1</dim>
					<dim>1024</dim>
				</port>
			</input>
			<output>
				<port id="1" precision="FP32">
					<dim>1</dim>
					<dim>1</dim>
					<dim>1024</dim>
				</port>
			</output>
		</layer>
		<layer id="306" name="Multiply_1424" type="Multiply" version="opset1">
			<data auto_broadcast="numpy" />
			<input>
				<port id="0" precision="FP32">
					<dim>1</dim>
					<dim>188</dim>
					<dim>1024</dim>
				</port>
				<port id="1" precision="FP32">
					<dim>1</dim>
					<dim>1</dim>
					<dim>1024</dim>
				</port>
			</input>
			<output>
				<port id="2" precision="FP32">
					<dim>1</dim>
					<dim>188</dim>
					<dim>1024</dim>
				</port>
			</output>
		</layer>
		<layer id="307" name="Constant_23379_compressed" type="Const" version="opset1">
			<data element_type="f16" shape="1, 1, 1024" offset="40991860" size="2048" />
			<output>
				<port id="0" precision="FP16">
					<dim>1</dim>
					<dim>1</dim>
					<dim>1024</dim>
				</port>
			</output>
		</layer>
		<layer id="308" name="Constant_23379" type="Convert" version="opset1">
			<data destination_type="f32" />
			<rt_info>
				<attribute name="decompression" version="0" />
			</rt_info>
			<input>
				<port id="0" precision="FP16">
					<dim>1</dim>
					<dim>1</dim>
					<dim>1024</dim>
				</port>
			</input>
			<output>
				<port id="1" precision="FP32">
					<dim>1</dim>
					<dim>1</dim>
					<dim>1024</dim>
				</port>
			</output>
		</layer>
		<layer id="309" name="/encoder/layers.0/norm_feed_forward2/LayerNormalization" type="Add" version="opset1">
			<data auto_broadcast="numpy" />
			<input>
				<port id="0" precision="FP32">
					<dim>1</dim>
					<dim>188</dim>
					<dim>1024</dim>
				</port>
				<port id="1" precision="FP32">
					<dim>1</dim>
					<dim>1</dim>
					<dim>1024</dim>
				</port>
			</input>
			<output>
				<port id="2" precision="FP32" names="/encoder/layers.0/norm_feed_forward2/LayerNormalization_output_0">
					<dim>1</dim>
					<dim>188</dim>
					<dim>1024</dim>
				</port>
			</output>
		</layer>
		<layer id="310" name="Transpose_19827_compressed" type="Const" version="opset1">
			<data element_type="f16" shape="4096, 1024" offset="40993908" size="8388608" />
			<output>
				<port id="0" precision="FP16">
					<dim>4096</dim>
					<dim>1024</dim>
				</port>
			</output>
		</layer>
		<layer id="311" name="Transpose_19827" type="Convert" version="opset1">
			<data destination_type="f32" />
			<rt_info>
				<attribute name="decompression" version="0" />
			</rt_info>
			<input>
				<port id="0" precision="FP16">
					<dim>4096</dim>
					<dim>1024</dim>
				</port>
			</input>
			<output>
				<port id="1" precision="FP32">
					<dim>4096</dim>
					<dim>1024</dim>
				</port>
			</output>
		</layer>
		<layer id="312" name="/encoder/layers.0/feed_forward2/linear1/MatMul" type="MatMul" version="opset1">
			<data transpose_a="false" transpose_b="true" />
			<input>
				<port id="0" precision="FP32">
					<dim>1</dim>
					<dim>188</dim>
					<dim>1024</dim>
				</port>
				<port id="1" precision="FP32">
					<dim>4096</dim>
					<dim>1024</dim>
				</port>
			</input>
			<output>
				<port id="2" precision="FP32" names="/encoder/layers.0/feed_forward2/linear1/MatMul_output_0">
					<dim>1</dim>
					<dim>188</dim>
					<dim>4096</dim>
				</port>
			</output>
		</layer>
		<layer id="313" name="/encoder/layers.0/feed_forward2/activation/Mul" type="Swish" version="opset4">
			<input>
				<port id="0" precision="FP32">
					<dim>1</dim>
					<dim>188</dim>
					<dim>4096</dim>
				</port>
			</input>
			<output>
				<port id="1" precision="FP32" names="/encoder/layers.0/feed_forward2/activation/Mul_output_0">
					<dim>1</dim>
					<dim>188</dim>
					<dim>4096</dim>
				</port>
			</output>
		</layer>
		<layer id="314" name="Transpose_19831_compressed" type="Const" version="opset1">
			<data element_type="f16" shape="1024, 4096" offset="49382516" size="8388608" />
			<output>
				<port id="0" precision="FP16">
					<dim>1024</dim>
					<dim>4096</dim>
				</port>
			</output>
		</layer>
		<layer id="315" name="Transpose_19831" type="Convert" version="opset1">
			<data destination_type="f32" />
			<rt_info>
				<attribute name="decompression" version="0" />
			</rt_info>
			<input>
				<port id="0" precision="FP16">
					<dim>1024</dim>
					<dim>4096</dim>
				</port>
			</input>
			<output>
				<port id="1" precision="FP32">
					<dim>1024</dim>
					<dim>4096</dim>
				</port>
			</output>
		</layer>
		<layer id="316" name="/encoder/layers.0/feed_forward2/linear2/MatMul" type="MatMul" version="opset1">
			<data transpose_a="false" transpose_b="true" />
			<input>
				<port id="0" precision="FP32">
					<dim>1</dim>
					<dim>188</dim>
					<dim>4096</dim>
				</port>
				<port id="1" precision="FP32">
					<dim>1024</dim>
					<dim>4096</dim>
				</port>
			</input>
			<output>
				<port id="2" precision="FP32" names="/encoder/layers.0/feed_forward2/linear2/MatMul_output_0">
					<dim>1</dim>
					<dim>188</dim>
					<dim>1024</dim>
				</port>
			</output>
		</layer>
		<layer id="317" name="Constant_23380_compressed" type="Const" version="opset1">
			<data element_type="f16" shape="1, 1, 1" offset="0" size="2" />
			<output>
				<port id="0" precision="FP16">
					<dim>1</dim>
					<dim>1</dim>
					<dim>1</dim>
				</port>
			</output>
		</layer>
		<layer id="318" name="Constant_23380" type="Convert" version="opset1">
			<data destination_type="f32" />
			<rt_info>
				<attribute name="decompression" version="0" />
			</rt_info>
			<input>
				<port id="0" precision="FP16">
					<dim>1</dim>
					<dim>1</dim>
					<dim>1</dim>
				</port>
			</input>
			<output>
				<port id="1" precision="FP32">
					<dim>1</dim>
					<dim>1</dim>
					<dim>1</dim>
				</port>
			</output>
		</layer>
		<layer id="319" name="/encoder/layers.0/Mul_1" type="Multiply" version="opset1">
			<data auto_broadcast="numpy" />
			<input>
				<port id="0" precision="FP32">
					<dim>1</dim>
					<dim>188</dim>
					<dim>1024</dim>
				</port>
				<port id="1" precision="FP32">
					<dim>1</dim>
					<dim>1</dim>
					<dim>1</dim>
				</port>
			</input>
			<output>
				<port id="2" precision="FP32" names="/encoder/layers.0/Mul_1_output_0">
					<dim>1</dim>
					<dim>188</dim>
					<dim>1024</dim>
				</port>
			</output>
		</layer>
		<layer id="320" name="/encoder/layers.0/Add_3" type="Add" version="opset1">
			<data auto_broadcast="numpy" />
			<input>
				<port id="0" precision="FP32">
					<dim>1</dim>
					<dim>188</dim>
					<dim>1024</dim>
				</port>
				<port id="1" precision="FP32">
					<dim>1</dim>
					<dim>188</dim>
					<dim>1024</dim>
				</port>
			</input>
			<output>
				<port id="2" precision="FP32" names="/encoder/layers.0/Add_3_output_0">
					<dim>1</dim>
					<dim>188</dim>
					<dim>1024</dim>
				</port>
			</output>
		</layer>
		<layer id="321" name="Range_1436" type="Const" version="opset1">
			<data element_type="i64" shape="1" offset="14094" size="8" />
			<output>
				<port id="0" precision="I64">
					<dim>1</dim>
				</port>
			</output>
		</layer>
		<layer id="322" name="MVN_1437" type="MVN" version="opset6">
			<data eps="9.9999997473787516e-06" normalize_variance="true" eps_mode="INSIDE_SQRT" />
			<input>
				<port id="0" precision="FP32">
					<dim>1</dim>
					<dim>188</dim>
					<dim>1024</dim>
				</port>
				<port id="1" precision="I64">
					<dim>1</dim>
				</port>
			</input>
			<output>
				<port id="2" precision="FP32">
					<dim>1</dim>
					<dim>188</dim>
					<dim>1024</dim>
				</port>
			</output>
		</layer>
		<layer id="323" name="Constant_23381_compressed" type="Const" version="opset1">
			<data element_type="f16" shape="1, 1, 1024" offset="57771124" size="2048" />
			<output>
				<port id="0" precision="FP16">
					<dim>1</dim>
					<dim>1</dim>
					<dim>1024</dim>
				</port>
			</output>
		</layer>
		<layer id="324" name="Constant_23381" type="Convert" version="opset1">
			<data destination_type="f32" />
			<rt_info>
				<attribute name="decompression" version="0" />
			</rt_info>
			<input>
				<port id="0" precision="FP16">
					<dim>1</dim>
					<dim>1</dim>
					<dim>1024</dim>
				</port>
			</input>
			<output>
				<port id="1" precision="FP32">
					<dim>1</dim>
					<dim>1</dim>
					<dim>1024</dim>
				</port>
			</output>
		</layer>
		<layer id="325" name="Multiply_1438" type="Multiply" version="opset1">
			<data auto_broadcast="numpy" />
			<input>
				<port id="0" precision="FP32">
					<dim>1</dim>
					<dim>188</dim>
					<dim>1024</dim>
				</port>
				<port id="1" precision="FP32">
					<dim>1</dim>
					<dim>1</dim>
					<dim>1024</dim>
				</port>
			</input>
			<output>
				<port id="2" precision="FP32">
					<dim>1</dim>
					<dim>188</dim>
					<dim>1024</dim>
				</port>
			</output>
		</layer>
		<layer id="326" name="Constant_23382_compressed" type="Const" version="opset1">
			<data element_type="f16" shape="1, 1, 1024" offset="57773172" size="2048" />
			<output>
				<port id="0" precision="FP16">
					<dim>1</dim>
					<dim>1</dim>
					<dim>1024</dim>
				</port>
			</output>
		</layer>
		<layer id="327" name="Constant_23382" type="Convert" version="opset1">
			<data destination_type="f32" />
			<rt_info>
				<attribute name="decompression" version="0" />
			</rt_info>
			<input>
				<port id="0" precision="FP16">
					<dim>1</dim>
					<dim>1</dim>
					<dim>1024</dim>
				</port>
			</input>
			<output>
				<port id="1" precision="FP32">
					<dim>1</dim>
					<dim>1</dim>
					<dim>1024</dim>
				</port>
			</output>
		</layer>
		<layer id="328" name="/encoder/layers.0/norm_out/LayerNormalization" type="Add" version="opset1">
			<data auto_broadcast="numpy" />
			<input>
				<port id="0" precision="FP32">
					<dim>1</dim>
					<dim>188</dim>
					<dim>1024</dim>
				</port>
				<port id="1" precision="FP32">
					<dim>1</dim>
					<dim>1</dim>
					<dim>1024</dim>
				</port>
			</input>
			<output>
				<port id="2" precision="FP32" names="/encoder/layers.0/norm_out/LayerNormalization_output_0">
					<dim>1</dim>
					<dim>188</dim>
					<dim>1024</dim>
				</port>
			</output>
		</layer>
		<layer id="329" name="Range_1443" type="Const" version="opset1">
			<data element_type="i64" shape="1" offset="14094" size="8" />
			<output>
				<port id="0" precision="I64">
					<dim>1</dim>
				</port>
			</output>
		</layer>
		<layer id="330" name="MVN_1444" type="MVN" version="opset6">
			<data eps="9.9999997473787516e-06" normalize_variance="true" eps_mode="INSIDE_SQRT" />
			<input>
				<port id="0" precision="FP32">
					<dim>1</dim>
					<dim>188</dim>
					<dim>1024</dim>
				</port>
				<port id="1" precision="I64">
					<dim>1</dim>
				</port>
			</input>
			<output>
				<port id="2" precision="FP32">
					<dim>1</dim>
					<dim>188</dim>
					<dim>1024</dim>
				</port>
			</output>
		</layer>
		<layer id="331" name="Constant_23383_compressed" type="Const" version="opset1">
			<data element_type="f16" shape="1, 1, 1024" offset="57775220" size="2048" />
			<output>
				<port id="0" precision="FP16">
					<dim>1</dim>
					<dim>1</dim>
					<dim>1024</dim>
				</port>
			</output>
		</layer>
		<layer id="332" name="Constant_23383" type="Convert" version="opset1">
			<data destination_type="f32" />
			<rt_info>
				<attribute name="decompression" version="0" />
			</rt_info>
			<input>
				<port id="0" precision="FP16">
					<dim>1</dim>
					<dim>1</dim>
					<dim>1024</dim>
				</port>
			</input>
			<output>
				<port id="1" precision="FP32">
					<dim>1</dim>
					<dim>1</dim>
					<dim>1024</dim>
				</port>
			</output>
		</layer>
		<layer id="333" name="Multiply_1445" type="Multiply" version="opset1">
			<data auto_broadcast="numpy" />
			<input>
				<port id="0" precision="FP32">
					<dim>1</dim>
					<dim>188</dim>
					<dim>1024</dim>
				</port>
				<port id="1" precision="FP32">
					<dim>1</dim>
					<dim>1</dim>
					<dim>1024</dim>
				</port>
			</input>
			<output>
				<port id="2" precision="FP32">
					<dim>1</dim>
					<dim>188</dim>
					<dim>1024</dim>
				</port>
			</output>
		</layer>
		<layer id="334" name="Constant_23384_compressed" type="Const" version="opset1">
			<data element_type="f16" shape="1, 1, 1024" offset="57777268" size="2048" />
			<output>
				<port id="0" precision="FP16">
					<dim>1</dim>
					<dim>1</dim>
					<dim>1024</dim>
				</port>
			</output>
…
		<edge from-layer="3312" from-port="0" to-layer="3313" to-port="0" />
		<edge from-layer="3313" from-port="1" to-layer="3314" to-port="1" />
		<edge from-layer="3314" from-port="2" to-layer="3317" to-port="0" />
		<edge from-layer="3315" from-port="0" to-layer="3316" to-port="0" />
		<edge from-layer="3316" from-port="1" to-layer="3317" to-port="1" />
		<edge from-layer="3317" from-port="2" to-layer="3320" to-port="0" />
		<edge from-layer="3318" from-port="0" to-layer="3319" to-port="0" />
		<edge from-layer="3319" from-port="1" to-layer="3320" to-port="1" />
		<edge from-layer="3320" from-port="2" to-layer="3321" to-port="0" />
		<edge from-layer="3321" from-port="1" to-layer="3324" to-port="0" />
		<edge from-layer="3322" from-port="0" to-layer="3323" to-port="0" />
		<edge from-layer="3323" from-port="1" to-layer="3324" to-port="1" />
		<edge from-layer="3324" from-port="2" to-layer="3327" to-port="0" />
		<edge from-layer="3325" from-port="0" to-layer="3326" to-port="0" />
		<edge from-layer="3326" from-port="1" to-layer="3327" to-port="1" />
		<edge from-layer="3327" from-port="2" to-layer="3328" to-port="1" />
		<edge from-layer="3328" from-port="2" to-layer="3330" to-port="0" />
		<edge from-layer="3329" from-port="0" to-layer="3330" to-port="1" />
		<edge from-layer="3330" from-port="2" to-layer="3333" to-port="0" />
		<edge from-layer="3331" from-port="0" to-layer="3332" to-port="0" />
		<edge from-layer="3332" from-port="1" to-layer="3333" to-port="1" />
		<edge from-layer="3333" from-port="2" to-layer="3336" to-port="0" />
		<edge from-layer="3334" from-port="0" to-layer="3335" to-port="0" />
		<edge from-layer="3335" from-port="1" to-layer="3336" to-port="1" />
		<edge from-layer="3336" from-port="2" to-layer="3355" to-port="0" />
		<edge from-layer="3336" from-port="2" to-layer="3338" to-port="0" />
		<edge from-layer="3337" from-port="0" to-layer="3338" to-port="1" />
		<edge from-layer="3338" from-port="2" to-layer="3341" to-port="0" />
		<edge from-layer="3339" from-port="0" to-layer="3340" to-port="0" />
		<edge from-layer="3340" from-port="1" to-layer="3341" to-port="1" />
		<edge from-layer="3341" from-port="2" to-layer="3344" to-port="0" />
		<edge from-layer="3342" from-port="0" to-layer="3343" to-port="0" />
		<edge from-layer="3343" from-port="1" to-layer="3344" to-port="1" />
		<edge from-layer="3344" from-port="2" to-layer="3347" to-port="0" />
		<edge from-layer="3345" from-port="0" to-layer="3346" to-port="0" />
		<edge from-layer="3346" from-port="1" to-layer="3347" to-port="1" />
		<edge from-layer="3347" from-port="2" to-layer="3348" to-port="0" />
		<edge from-layer="3348" from-port="1" to-layer="3351" to-port="0" />
		<edge from-layer="3349" from-port="0" to-layer="3350" to-port="0" />
		<edge from-layer="3350" from-port="1" to-layer="3351" to-port="1" />
		<edge from-layer="3351" from-port="2" to-layer="3354" to-port="0" />
		<edge from-layer="3352" from-port="0" to-layer="3353" to-port="0" />
		<edge from-layer="3353" from-port="1" to-layer="3354" to-port="1" />
		<edge from-layer="3354" from-port="2" to-layer="3355" to-port="1" />
		<edge from-layer="3355" from-port="2" to-layer="3361" to-port="0" />
		<edge from-layer="3355" from-port="2" to-layer="3434" to-port="0" />
		<edge from-layer="3356" from-port="0" to-layer="3357" to-port="0" />
		<edge from-layer="3357" from-port="1" to-layer="3418" to-port="1" />
		<edge from-layer="3358" from-port="0" to-layer="3359" to-port="0" />
		<edge from-layer="3359" from-port="1" to-layer="3416" to-port="1" />
		<edge from-layer="3360" from-port="0" to-layer="3361" to-port="1" />
		<edge from-layer="3361" from-port="2" to-layer="3364" to-port="0" />
		<edge from-layer="3362" from-port="0" to-layer="3363" to-port="0" />
		<edge from-layer="3363" from-port="1" to-layer="3364" to-port="1" />
		<edge from-layer="3364" from-port="2" to-layer="3367" to-port="0" />
		<edge from-layer="3365" from-port="0" to-layer="3366" to-port="0" />
		<edge from-layer="3366" from-port="1" to-layer="3367" to-port="1" />
		<edge from-layer="3367" from-port="2" to-layer="3421" to-port="0" />
		<edge from-layer="3367" from-port="2" to-layer="3370" to-port="0" />
		<edge from-layer="3367" from-port="2" to-layer="3380" to-port="0" />
		<edge from-layer="3368" from-port="0" to-layer="3369" to-port="0" />
		<edge from-layer="3369" from-port="1" to-layer="3370" to-port="1" />
		<edge from-layer="3370" from-port="2" to-layer="3372" to-port="0" />
		<edge from-layer="3371" from-port="0" to-layer="3372" to-port="1" />
		<edge from-layer="3372" from-port="2" to-layer="3375" to-port="0" />
		<edge from-layer="3372" from-port="2" to-layer="3388" to-port="0" />
		<edge from-layer="3373" from-port="0" to-layer="3374" to-port="0" />
		<edge from-layer="3374" from-port="1" to-layer="3375" to-port="1" />
		<edge from-layer="3375" from-port="2" to-layer="3377" to-port="0" />
		<edge from-layer="3376" from-port="0" to-layer="3377" to-port="1" />
		<edge from-layer="3377" from-port="2" to-layer="3385" to-port="0" />
		<edge from-layer="3378" from-port="0" to-layer="3379" to-port="0" />
		<edge from-layer="3379" from-port="1" to-layer="3380" to-port="1" />
		<edge from-layer="3380" from-port="2" to-layer="3382" to-port="0" />
		<edge from-layer="3381" from-port="0" to-layer="3382" to-port="1" />
		<edge from-layer="3382" from-port="2" to-layer="3384" to-port="0" />
		<edge from-layer="3383" from-port="0" to-layer="3384" to-port="1" />
		<edge from-layer="3384" from-port="2" to-layer="3385" to-port="1" />
		<edge from-layer="3385" from-port="2" to-layer="3412" to-port="0" />
		<edge from-layer="3386" from-port="0" to-layer="3387" to-port="0" />
		<edge from-layer="3387" from-port="1" to-layer="3388" to-port="1" />
		<edge from-layer="3388" from-port="2" to-layer="3390" to-port="0" />
		<edge from-layer="3389" from-port="0" to-layer="3390" to-port="1" />
		<edge from-layer="3390" from-port="2" to-layer="3393" to-port="0" />
		<edge from-layer="3391" from-port="0" to-layer="3392" to-port="0" />
		<edge from-layer="3392" from-port="1" to-layer="3393" to-port="1" />
		<edge from-layer="3393" from-port="2" to-layer="3398" to-port="0" />
		<edge from-layer="3394" from-port="0" to-layer="3398" to-port="1" />
		<edge from-layer="3395" from-port="0" to-layer="3398" to-port="2" />
		<edge from-layer="3396" from-port="0" to-layer="3397" to-port="0" />
		<edge from-layer="3397" from-port="1" to-layer="3398" to-port="3" />
		<edge from-layer="3398" from-port="4" to-layer="3400" to-port="0" />
		<edge from-layer="3399" from-port="0" to-layer="3400" to-port="1" />
		<edge from-layer="3400" from-port="2" to-layer="3405" to-port="0" />
		<edge from-layer="3401" from-port="0" to-layer="3405" to-port="1" />
		<edge from-layer="3402" from-port="0" to-layer="3405" to-port="2" />
		<edge from-layer="3403" from-port="0" to-layer="3405" to-port="3" />
		<edge from-layer="3404" from-port="0" to-layer="3405" to-port="4" />
		<edge from-layer="3405" from-port="5" to-layer="3407" to-port="0" />
		<edge from-layer="3406" from-port="0" to-layer="3407" to-port="1" />
		<edge from-layer="3407" from-port="2" to-layer="3411" to-port="0" />
		<edge from-layer="3408" from-port="0" to-layer="3411" to-port="1" />
		<edge from-layer="3409" from-port="0" to-layer="3411" to-port="3" />
		<edge from-layer="3410" from-port="0" to-layer="3411" to-port="4" />
		<edge from-layer="3411" from-port="5" to-layer="3412" to-port="1" />
		<edge from-layer="3412" from-port="2" to-layer="3415" to-port="0" />
		<edge from-layer="3413" from-port="0" to-layer="3414" to-port="0" />
		<edge from-layer="3414" from-port="1" to-layer="3415" to-port="1" />
		<edge from-layer="3415" from-port="2" to-layer="3416" to-port="2" />
		<edge from-layer="3416" from-port="3" to-layer="3417" to-port="0" />
		<edge from-layer="3417" from-port="1" to-layer="3418" to-port="2" />
		<edge from-layer="3418" from-port="3" to-layer="3426" to-port="0" />
		<edge from-layer="3419" from-port="0" to-layer="3420" to-port="0" />
		<edge from-layer="3420" from-port="1" to-layer="3421" to-port="1" />
		<edge from-layer="3421" from-port="2" to-layer="3423" to-port="0" />
		<edge from-layer="3422" from-port="0" to-layer="3423" to-port="1" />
		<edge from-layer="3423" from-port="2" to-layer="3425" to-port="0" />
		<edge from-layer="3424" from-port="0" to-layer="3425" to-port="1" />
		<edge from-layer="3425" from-port="2" to-layer="3426" to-port="1" />
		<edge from-layer="3426" from-port="2" to-layer="3428" to-port="0" />
		<edge from-layer="3427" from-port="0" to-layer="3428" to-port="1" />
		<edge from-layer="3428" from-port="2" to-layer="3430" to-port="0" />
		<edge from-layer="3429" from-port="0" to-layer="3430" to-port="1" />
		<edge from-layer="3430" from-port="2" to-layer="3433" to-port="0" />
		<edge from-layer="3431" from-port="0" to-layer="3432" to-port="0" />
		<edge from-layer="3432" from-port="1" to-layer="3433" to-port="1" />
		<edge from-layer="3433" from-port="2" to-layer="3434" to-port="1" />
		<edge from-layer="3434" from-port="2" to-layer="3438" to-port="0" />
		<edge from-layer="3434" from-port="2" to-layer="3467" to-port="0" />
		<edge from-layer="3435" from-port="0" to-layer="3436" to-port="0" />
		<edge from-layer="3436" from-port="1" to-layer="3454" to-port="1" />
		<edge from-layer="3437" from-port="0" to-layer="3438" to-port="1" />
		<edge from-layer="3438" from-port="2" to-layer="3441" to-port="0" />
		<edge from-layer="3439" from-port="0" to-layer="3440" to-port="0" />
		<edge from-layer="3440" from-port="1" to-layer="3441" to-port="1" />
		<edge from-layer="3441" from-port="2" to-layer="3444" to-port="0" />
		<edge from-layer="3442" from-port="0" to-layer="3443" to-port="0" />
		<edge from-layer="3443" from-port="1" to-layer="3444" to-port="1" />
		<edge from-layer="3444" from-port="2" to-layer="3446" to-port="0" />
		<edge from-layer="3445" from-port="0" to-layer="3446" to-port="1" />
		<edge from-layer="3446" from-port="2" to-layer="3449" to-port="0" />
		<edge from-layer="3447" from-port="0" to-layer="3448" to-port="0" />
		<edge from-layer="3448" from-port="1" to-layer="3449" to-port="1" />
		<edge from-layer="3449" from-port="2" to-layer="3451" to-port="0" />
		<edge from-layer="3450" from-port="0" to-layer="3451" to-port="1" />
		<edge from-layer="3451" from-port="3" to-layer="3452" to-port="0" />
		<edge from-layer="3451" from-port="2" to-layer="3453" to-port="0" />
		<edge from-layer="3452" from-port="1" to-layer="3453" to-port="1" />
		<edge from-layer="3453" from-port="2" to-layer="3454" to-port="2" />
		<edge from-layer="3454" from-port="3" to-layer="3457" to-port="0" />
		<edge from-layer="3455" from-port="0" to-layer="3456" to-port="0" />
		<edge from-layer="3456" from-port="1" to-layer="3457" to-port="1" />
		<edge from-layer="3457" from-port="2" to-layer="3460" to-port="0" />
		<edge from-layer="3458" from-port="0" to-layer="3459" to-port="0" />
		<edge from-layer="3459" from-port="1" to-layer="3460" to-port="1" />
		<edge from-layer="3460" from-port="2" to-layer="3461" to-port="0" />
		<edge from-layer="3461" from-port="1" to-layer="3464" to-port="0" />
		<edge from-layer="3462" from-port="0" to-layer="3463" to-port="0" />
		<edge from-layer="3463" from-port="1" to-layer="3464" to-port="1" />
		<edge from-layer="3464" from-port="2" to-layer="3466" to-port="0" />
		<edge from-layer="3465" from-port="0" to-layer="3466" to-port="1" />
		<edge from-layer="3466" from-port="2" to-layer="3467" to-port="1" />
		<edge from-layer="3467" from-port="2" to-layer="3486" to-port="0" />
		<edge from-layer="3467" from-port="2" to-layer="3469" to-port="0" />
		<edge from-layer="3468" from-port="0" to-layer="3469" to-port="1" />
		<edge from-layer="3469" from-port="2" to-layer="3472" to-port="0" />
		<edge from-layer="3470" from-port="0" to-layer="3471" to-port="0" />
		<edge from-layer="3471" from-port="1" to-layer="3472" to-port="1" />
		<edge from-layer="3472" from-port="2" to-layer="3475" to-port="0" />
		<edge from-layer="3473" from-port="0" to-layer="3474" to-port="0" />
		<edge from-layer="3474" from-port="1" to-layer="3475" to-port="1" />
		<edge from-layer="3475" from-port="2" to-layer="3478" to-port="0" />
		<edge from-layer="3476" from-port="0" to-layer="3477" to-port="0" />
		<edge from-layer="3477" from-port="1" to-layer="3478" to-port="1" />
		<edge from-layer="3478" from-port="2" to-layer="3479" to-port="0" />
		<edge from-layer="3479" from-port="1" to-layer="3482" to-port="0" />
		<edge from-layer="3480" from-port="0" to-layer="3481" to-port="0" />
		<edge from-layer="3481" from-port="1" to-layer="3482" to-port="1" />
		<edge from-layer="3482" from-port="2" to-layer="3485" to-port="0" />
		<edge from-layer="3483" from-port="0" to-layer="3484" to-port="0" />
		<edge from-layer="3484" from-port="1" to-layer="3485" to-port="1" />
		<edge from-layer="3485" from-port="2" to-layer="3486" to-port="1" />
		<edge from-layer="3486" from-port="2" to-layer="3488" to-port="0" />
		<edge from-layer="3487" from-port="0" to-layer="3488" to-port="1" />
		<edge from-layer="3488" from-port="2" to-layer="3491" to-port="0" />
		<edge from-layer="3489" from-port="0" to-layer="3490" to-port="0" />
		<edge from-layer="3490" from-port="1" to-layer="3491" to-port="1" />
		<edge from-layer="3491" from-port="2" to-layer="3494" to-port="0" />
		<edge from-layer="3492" from-port="0" to-layer="3493" to-port="0" />
		<edge from-layer="3493" from-port="1" to-layer="3494" to-port="1" />
		<edge from-layer="3494" from-port="2" to-layer="3496" to-port="0" />
		<edge from-layer="3494" from-port="2" to-layer="3513" to-port="0" />
		<edge from-layer="3495" from-port="0" to-layer="3496" to-port="1" />
		<edge from-layer="3496" from-port="2" to-layer="3499" to-port="0" />
		<edge from-layer="3497" from-port="0" to-layer="3498" to-port="0" />
		<edge from-layer="3498" from-port="1" to-layer="3499" to-port="1" />
		<edge from-layer="3499" from-port="2" to-layer="3502" to-port="0" />
		<edge from-layer="3500" from-port="0" to-layer="3501" to-port="0" />
		<edge from-layer="3501" from-port="1" to-layer="3502" to-port="1" />
		<edge from-layer="3502" from-port="2" to-layer="3505" to-port="0" />
		<edge from-layer="3503" from-port="0" to-layer="3504" to-port="0" />
		<edge from-layer="3504" from-port="1" to-layer="3505" to-port="1" />
		<edge from-layer="3505" from-port="2" to-layer="3506" to-port="0" />
		<edge from-layer="3506" from-port="1" to-layer="3509" to-port="0" />
		<edge from-layer="3507" from-port="0" to-layer="3508" to-port="0" />
		<edge from-layer="3508" from-port="1" to-layer="3509" to-port="1" />
		<edge from-layer="3509" from-port="2" to-layer="3512" to-port="0" />
		<edge from-layer="3510" from-port="0" to-layer="3511" to-port="0" />
		<edge from-layer="3511" from-port="1" to-layer="3512" to-port="1" />
		<edge from-layer="3512" from-port="2" to-layer="3513" to-port="1" />
		<edge from-layer="3513" from-port="2" to-layer="3519" to-port="0" />
		<edge from-layer="3513" from-port="2" to-layer="3592" to-port="0" />
		<edge from-layer="3514" from-port="0" to-layer="3515" to-port="0" />
		<edge from-layer="3515" from-port="1" to-layer="3576" to-port="1" />
		<edge from-layer="3516" from-port="0" to-layer="3517" to-port="0" />
		<edge from-layer="3517" from-port="1" to-layer="3574" to-port="1" />
		<edge from-layer="3518" from-port="0" to-layer="3519" to-port="1" />
		<edge from-layer="3519" from-port="2" to-layer="3522" to-port="0" />
		<edge from-layer="3520" from-port="0" to-layer="3521" to-port="0" />
		<edge from-layer="3521" from-port="1" to-layer="3522" to-port="1" />
		<edge from-layer="3522" from-port="2" to-layer="3525" to-port="0" />
		<edge from-layer="3523" from-port="0" to-layer="3524" to-port="0" />
		<edge from-layer="3524" from-port="1" to-layer="3525" to-port="1" />
		<edge from-layer="3525" from-port="2" to-layer="3528" to-port="0" />
		<edge from-layer="3525" from-port="2" to-layer="3538" to-port="0" />
		<edge from-layer="3525" from-port="2" to-layer="3579" to-port="0" />
		<edge from-layer="3526" from-port="0" to-layer="3527" to-port="0" />
		<edge from-layer="3527" from-port="1" to-layer="3528" to-port="1" />
		<edge from-layer="3528" from-port="2" to-layer="3530" to-port="0" />
		<edge from-layer="3529" from-port="0" to-layer="3530" to-port="1" />
		<edge from-layer="3530" from-port="2" to-layer="3533" to-port="0" />
		<edge from-layer="3530" from-port="2" to-layer="3546" to-port="0" />
		<edge from-layer="3531" from-port="0" to-layer="3532" to-port="0" />
		<edge from-layer="3532" from-port="1" to-layer="3533" to-port="1" />
		<edge from-layer="3533" from-port="2" to-layer="3535" to-port="0" />
		<edge from-layer="3534" from-port="0" to-layer="3535" to-port="1" />
		<edge from-layer="3535" from-port="2" to-layer="3543" to-port="0" />
		<edge from-layer="3536" from-port="0" to-layer="3537" to-port="0" />
		<edge from-layer="3537" from-port="1" to-layer="3538" to-port="1" />
		<edge from-layer="3538" from-port="2" to-layer="3540" to-port="0" />
		<edge from-layer="3539" from-port="0" to-layer="3540" to-port="1" />
		<edge from-layer="3540" from-port="2" to-layer="3542" to-port="0" />
		<edge from-layer="3541" from-port="0" to-layer="3542" to-port="1" />
		<edge from-layer="3542" from-port="2" to-layer="3543" to-port="1" />
		<edge from-layer="3543" from-port="2" to-layer="3570" to-port="0" />
		<edge from-layer="3544" from-port="0" to-layer="3545" to-port="0" />
		<edge from-layer="3545" from-port="1" to-layer="3546" to-port="1" />
		<edge from-layer="3546" from-port="2" to-layer="3548" to-port="0" />
		<edge from-layer="3547" from-port="0" to-layer="3548" to-port="1" />
		<edge from-layer="3548" from-port="2" to-layer="3551" to-port="0" />
		<edge from-layer="3549" from-port="0" to-layer="3550" to-port="0" />
		<edge from-layer="3550" from-port="1" to-layer="3551" to-port="1" />
		<edge from-layer="3551" from-port="2" to-layer="3556" to-port="0" />
		<edge from-layer="3552" from-port="0" to-layer="3556" to-port="1" />
		<edge from-layer="3553" from-port="0" to-layer="3556" to-port="2" />
		<edge from-layer="3554" from-port="0" to-layer="3555" to-port="0" />
		<edge from-layer="3555" from-port="1" to-layer="3556" to-port="3" />
		<edge from-layer="3556" from-port="4" to-layer="3558" to-port="0" />
		<edge from-layer="3557" from-port="0" to-layer="3558" to-port="1" />
		<edge from-layer="3558" from-port="2" to-layer="3563" to-port="0" />
		<edge from-layer="3559" from-port="0" to-layer="3563" to-port="1" />
		<edge from-layer="3560" from-port="0" to-layer="3563" to-port="2" />
		<edge from-layer="3561" from-port="0" to-layer="3563" to-port="3" />
		<edge from-layer="3562" from-port="0" to-layer="3563" to-port="4" />
		<edge from-layer="3563" from-port="5" to-layer="3565" to-port="0" />
		<edge from-layer="3564" from-port="0" to-layer="3565" to-port="1" />
		<edge from-layer="3565" from-port="2" to-layer="3569" to-port="0" />
		<edge from-layer="3566" from-port="0" to-layer="3569" to-port="1" />
		<edge from-layer="3567" from-port="0" to-layer="3569" to-port="3" />
		<edge from-layer="3568" from-port="0" to-layer="3569" to-port="4" />
		<edge from-layer="3569" from-port="5" to-layer="3570" to-port="1" />
		<edge from-layer="3570" from-port="2" to-layer="3573" to-port="0" />
		<edge from-layer="3571" from-port="0" to-layer="3572" to-port="0" />
		<edge from-layer="3572" from-port="1" to-layer="3573" to-port="1" />
		<edge from-layer="3573" from-port="2" to-layer="3574" to-port="2" />
		<edge from-layer="3574" from-port="3" to-layer="3575" to-port="0" />
		<edge from-layer="3575" from-port="1" to-layer="3576" to-port="2" />
		<edge from-layer="3576" from-port="3" to-layer="3584" to-port="0" />
		<edge from-layer="3577" from-port="0" to-layer="3578" to-port="0" />
		<edge from-layer="3578" from-port="1" to-layer="3579" to-port="1" />
		<edge from-layer="3579" from-port="2" to-layer="3581" to-port="0" />
		<edge from-layer="3580" from-port="0" to-layer="3581" to-port="1" />
		<edge from-layer="3581" from-port="2" to-layer="3583" to-port="0" />
		<edge from-layer="3582" from-port="0" to-layer="3583" to-port="1" />
		<edge from-layer="3583" from-port="2" to-layer="3584" to-port="1" />
		<edge from-layer="3584" from-port="2" to-layer="3586" to-port="0" />
		<edge from-layer="3585" from-port="0" to-layer="3586" to-port="1" />
		<edge from-layer="3586" from-port="2" to-layer="3588" to-port="0" />
		<edge from-layer="3587" from-port="0" to-layer="3588" to-port="1" />
		<edge from-layer="3588" from-port="2" to-layer="3591" to-port="0" />
		<edge from-layer="3589" from-port="0" to-layer="3590" to-port="0" />
		<edge from-layer="3590" from-port="1" to-layer="3591" to-port="1" />
		<edge from-layer="3591" from-port="2" to-layer="3592" to-port="1" />
		<edge from-layer="3592" from-port="2" to-layer="3596" to-port="0" />
		<edge from-layer="3592" from-port="2" to-layer="3625" to-port="0" />
		<edge from-layer="3593" from-port="0" to-layer="3594" to-port="0" />
		<edge from-layer="3594" from-port="1" to-layer="3612" to-port="1" />
		<edge from-layer="3595" from-port="0" to-layer="3596" to-port="1" />
		<edge from-layer="3596" from-port="2" to-layer="3599" to-port="0" />
		<edge from-layer="3597" from-port="0" to-layer="3598" to-port="0" />
		<edge from-layer="3598" from-port="1" to-layer="3599" to-port="1" />
		<edge from-layer="3599" from-port="2" to-layer="3602" to-port="0" />
		<edge from-layer="3600" from-port="0" to-layer="3601" to-port="0" />
		<edge from-layer="3601" from-port="1" to-layer="3602" to-port="1" />
		<edge from-layer="3602" from-port="2" to-layer="3604" to-port="0" />
		<edge from-layer="3603" from-port="0" to-layer="3604" to-port="1" />
		<edge from-layer="3604" from-port="2" to-layer="3607" to-port="0" />
		<edge from-layer="3605" from-port="0" to-layer="3606" to-port="0" />
		<edge from-layer="3606" from-port="1" to-layer="3607" to-port="1" />
		<edge from-layer="3607" from-port="2" to-layer="3609" to-port="0" />
		<edge from-layer="3608" from-port="0" to-layer="3609" to-port="1" />
		<edge from-layer="3609" from-port="3" to-layer="3610" to-port="0" />
		<edge from-layer="3609" from-port="2" to-layer="3611" to-port="0" />
		<edge from-layer="3610" from-port="1" to-layer="3611" to-port="1" />
		<edge from-layer="3611" from-port="2" to-layer="3612" to-port="2" />
		<edge from-layer="3612" from-port="3" to-layer="3615" to-port="0" />
		<edge from-layer="3613" from-port="0" to-layer="3614" to-port="0" />
		<edge from-layer="3614" from-port="1" to-layer="3615" to-port="1" />
		<edge from-layer="3615" from-port="2" to-layer="3618" to-port="0" />
		<edge from-layer="3616" from-port="0" to-layer="3617" to-port="0" />
		<edge from-layer="3617" from-port="1" to-layer="3618" to-port="1" />
		<edge from-layer="3618" from-port="2" to-layer="3619" to-port="0" />
		<edge from-layer="3619" from-port="1" to-layer="3622" to-port="0" />
		<edge from-layer="3620" from-port="0" to-layer="3621" to-port="0" />
		<edge from-layer="3621" from-port="1" to-layer="3622" to-port="1" />
		<edge from-layer="3622" from-port="2" to-layer="3624" to-port="0" />
		<edge from-layer="3623" from-port="0" to-layer="3624" to-port="1" />
		<edge from-layer="3624" from-port="2" to-layer="3625" to-port="1" />
		<edge from-layer="3625" from-port="2" to-layer="3627" to-port="0" />
		<edge from-layer="3625" from-port="2" to-layer="3644" to-port="0" />
		<edge from-layer="3626" from-port="0" to-layer="3627" to-port="1" />
		<edge from-layer="3627" from-port="2" to-layer="3630" to-port="0" />
		<edge from-layer="3628" from-port="0" to-layer="3629" to-port="0" />
		<edge from-layer="3629" from-port="1" to-layer="3630" to-port="1" />
		<edge from-layer="3630" from-port="2" to-layer="3633" to-port="0" />
		<edge from-layer="3631" from-port="0" to-layer="3632" to-port="0" />
		<edge from-layer="3632" from-port="1" to-layer="3633" to-port="1" />
		<edge from-layer="3633" from-port="2" to-layer="3636" to-port="0" />
		<edge from-layer="3634" from-port="0" to-layer="3635" to-port="0" />
		<edge from-layer="3635" from-port="1" to-layer="3636" to-port="1" />
		<edge from-layer="3636" from-port="2" to-layer="3637" to-port="0" />
		<edge from-layer="3637" from-port="1" to-layer="3640" to-port="0" />
		<edge from-layer="3638" from-port="0" to-layer="3639" to-port="0" />
		<edge from-layer="3639" from-port="1" to-layer="3640" to-port="1" />
		<edge from-layer="3640" from-port="2" to-layer="3643" to-port="0" />
		<edge from-layer="3641" from-port="0" to-layer="3642" to-port="0" />
		<edge from-layer="3642" from-port="1" to-layer="3643" to-port="1" />
		<edge from-layer="3643" from-port="2" to-layer="3644" to-port="1" />
		<edge from-layer="3644" from-port="2" to-layer="3646" to-port="0" />
		<edge from-layer="3645" from-port="0" to-layer="3646" to-port="1" />
		<edge from-layer="3646" from-port="2" to-layer="3649" to-port="0" />
		<edge from-layer="3647" from-port="0" to-layer="3648" to-port="0" />
		<edge from-layer="3648" from-port="1" to-layer="3649" to-port="1" />
		<edge from-layer="3649" from-port="2" to-layer="3652" to-port="0" />
		<edge from-layer="3650" from-port="0" to-layer="3651" to-port="0" />
		<edge from-layer="3651" from-port="1" to-layer="3652" to-port="1" />
		<edge from-layer="3652" from-port="2" to-layer="3654" to-port="0" />
		<edge from-layer="3652" from-port="2" to-layer="3671" to-port="0" />
		<edge from-layer="3653" from-port="0" to-layer="3654" to-port="1" />
		<edge from-layer="3654" from-port="2" to-layer="3657" to-port="0" />
		<edge from-layer="3655" from-port="0" to-layer="3656" to-port="0" />
		<edge from-layer="3656" from-port="1" to-layer="3657" to-port="1" />
		<edge from-layer="3657" from-port="2" to-layer="3660" to-port="0" />
		<edge from-layer="3658" from-port="0" to-layer="3659" to-port="0" />
		<edge from-layer="3659" from-port="1" to-layer="3660" to-port="1" />
		<edge from-layer="3660" from-port="2" to-layer="3663" to-port="0" />
		<edge from-layer="3661" from-port="0" to-layer="3662" to-port="0" />
		<edge from-layer="3662" from-port="1" to-layer="3663" to-port="1" />
		<edge from-layer="3663" from-port="2" to-layer="3664" to-port="0" />
		<edge from-layer="3664" from-port="1" to-layer="3667" to-port="0" />
		<edge from-layer="3665" from-port="0" to-layer="3666" to-port="0" />
		<edge from-layer="3666" from-port="1" to-layer="3667" to-port="1" />
		<edge from-layer="3667" from-port="2" to-layer="3670" to-port="0" />
		<edge from-layer="3668" from-port="0" to-layer="3669" to-port="0" />
		<edge from-layer="3669" from-port="1" to-layer="3670" to-port="1" />
		<edge from-layer="3670" from-port="2" to-layer="3671" to-port="1" />
		<edge from-layer="3671" from-port="2" to-layer="3677" to-port="0" />
		<edge from-layer="3671" from-port="2" to-layer="3750" to-port="0" />
		<edge from-layer="3672" from-port="0" to-layer="3673" to-port="0" />
		<edge from-layer="3673" from-port="1" to-layer="3734" to-port="1" />
		<edge from-layer="3674" from-port="0" to-layer="3675" to-port="0" />
		<edge from-layer="3675" from-port="1" to-layer="3732" to-port="1" />
		<edge from-layer="3676" from-port="0" to-layer="3677" to-port="1" />
		<edge from-layer="3677" from-port="2" to-layer="3680" to-port="0" />
		<edge from-layer="3678" from-port="0" to-layer="3679" to-port="0" />
		<edge from-layer="3679" from-port="1" to-layer="3680" to-port="1" />
		<edge from-layer="3680" from-port="2" to-layer="3683" to-port="0" />
		<edge from-layer="3681" from-port="0" to-layer="3682" to-port="0" />
		<edge from-layer="3682" from-port="1" to-layer="3683" to-port="1" />
		<edge from-layer="3683" from-port="2" to-layer="3696" to-port="0" />
		<edge from-layer="3683" from-port="2" to-layer="3737" to-port="0" />
		<edge from-layer="3683" from-port="2" to-layer="3686" to-port="0" />
		<edge from-layer="3684" from-port="0" to-layer="3685" to-port="0" />
		<edge from-layer="3685" from-port="1" to-layer="3686" to-port="1" />
		<edge from-layer="3686" from-port="2" to-layer="3688" to-port="0" />
		<edge from-layer="3687" from-port="0" to-layer="3688" to-port="1" />
		<edge from-layer="3688" from-port="2" to-layer="3691" to-port="0" />
		<edge from-layer="3688" from-port="2" to-layer="3704" to-port="0" />
		<edge from-layer="3689" from-port="0" to-layer="3690" to-port="0" />
		<edge from-layer="3690" from-port="1" to-layer="3691" to-port="1" />
		<edge from-layer="3691" from-port="2" to-layer="3693" to-port="0" />
		<edge from-layer="3692" from-port="0" to-layer="3693" to-port="1" />
		<edge from-layer="3693" from-port="2" to-layer="3701" to-port="0" />
		<edge from-layer="3694" from-port="0" to-layer="3695" to-port="0" />
		<edge from-layer="3695" from-port="1" to-layer="3696" to-port="1" />
		<edge from-layer="3696" from-port="2" to-layer="3698" to-port="0" />
		<edge from-layer="3697" from-port="0" to-layer="3698" to-port="1" />
		<edge from-layer="3698" from-port="2" to-layer="3700" to-port="0" />
		<edge from-layer="3699" from-port="0" to-layer="3700" to-port="1" />
		<edge from-layer="3700" from-port="2" to-layer="3701" to-port="1" />
		<edge from-layer="3701" from-port="2" to-layer="3728" to-port="0" />
		<edge from-layer="3702" from-port="0" to-layer="3703" to-port="0" />
		<edge from-layer="3703" from-port="1" to-layer="3704" to-port="1" />
		<edge from-layer="3704" from-port="2" to-layer="3706" to-port="0" />
		<edge from-layer="3705" from-port="0" to-layer="3706" to-port="1" />
		<edge from-layer="3706" from-port="2" to-layer="3709" to-port="0" />
		<edge from-layer="3707" from-port="0" to-layer="3708" to-port="0" />
		<edge from-layer="3708" from-port="1" to-layer="3709" to-port="1" />
		<edge from-layer="3709" from-port="2" to-layer="3714" to-port="0" />
		<edge from-layer="3710" from-port="0" to-layer="3714" to-port="1" />
		<edge from-layer="3711" from-port="0" to-layer="3714" to-port="2" />
		<edge from-layer="3712" from-port="0" to-layer="3713" to-port="0" />
		<edge from-layer="3713" from-port="1" to-layer="3714" to-port="3" />
		<edge from-layer="3714" from-port="4" to-layer="3716" to-port="0" />
		<edge from-layer="3715" from-port="0" to-layer="3716" to-port="1" />
		<edge from-layer="3716" from-port="2" to-layer="3721" to-port="0" />
		<edge from-layer="3717" from-port="0" to-layer="3721" to-port="1" />
		<edge from-layer="3718" from-port="0" to-layer="3721" to-port="2" />
		<edge from-layer="3719" from-port="0" to-layer="3721" to-port="3" />
		<edge from-layer="3720" from-port="0" to-layer="3721" to-port="4" />
		<edge from-layer="3721" from-port="5" to-layer="3723" to-port="0" />
		<edge from-layer="3722" from-port="0" to-layer="3723" to-port="1" />
		<edge from-layer="3723" from-port="2" to-layer="3727" to-port="0" />
		<edge from-layer="3724" from-port="0" to-layer="3727" to-port="1" />
		<edge from-layer="3725" from-port="0" to-layer="3727" to-port="3" />
		<edge from-layer="3726" from-port="0" to-layer="3727" to-port="4" />
		<edge from-layer="3727" from-port="5" to-layer="3728" to-port="1" />
		<edge from-layer="3728" from-port="2" to-layer="3731" to-port="0" />
		<edge from-layer="3729" from-port="0" to-layer="3730" to-port="0" />
		<edge from-layer="3730" from-port="1" to-layer="3731" to-port="1" />
		<edge from-layer="3731" from-port="2" to-layer="3732" to-port="2" />
		<edge from-layer="3732" from-port="3" to-layer="3733" to-port="0" />
		<edge from-layer="3733" from-port="1" to-layer="3734" to-port="2" />
		<edge from-layer="3734" from-port="3" to-layer="3742" to-port="0" />
		<edge from-layer="3735" from-port="0" to-layer="3736" to-port="0" />
		<edge from-layer="3736" from-port="1" to-layer="3737" to-port="1" />
		<edge from-layer="3737" from-port="2" to-layer="3739" to-port="0" />
		<edge from-layer="3738" from-port="0" to-layer="3739" to-port="1" />
		<edge from-layer="3739" from-port="2" to-layer="3741" to-port="0" />
		<edge from-layer="3740" from-port="0" to-layer="3741" to-port="1" />
		<edge from-layer="3741" from-port="2" to-layer="3742" to-port="1" />
		<edge from-layer="3742" from-port="2" to-layer="3744" to-port="0" />
		<edge from-layer="3743" from-port="0" to-layer="3744" to-port="1" />
		<edge from-layer="3744" from-port="2" to-layer="3746" to-port="0" />
		<edge from-layer="3745" from-port="0" to-layer="3746" to-port="1" />
		<edge from-layer="3746" from-port="2" to-layer="3749" to-port="0" />
		<edge from-layer="3747" from-port="0" to-layer="3748" to-port="0" />
		<edge from-layer="3748" from-port="1" to-layer="3749" to-port="1" />
		<edge from-layer="3749" from-port="2" to-layer="3750" to-port="1" />
		<edge from-layer="3750" from-port="2" to-layer="3754" to-port="0" />
		<edge from-layer="3750" from-port="2" to-layer="3783" to-port="0" />
		<edge from-layer="3751" from-port="0" to-layer="3752" to-port="0" />
		<edge from-layer="3752" from-port="1" to-layer="3770" to-port="1" />
		<edge from-layer="3753" from-port="0" to-layer="3754" to-port="1" />
		<edge from-layer="3754" from-port="2" to-layer="3757" to-port="0" />
		<edge from-layer="3755" from-port="0" to-layer="3756" to-port="0" />
		<edge from-layer="3756" from-port="1" to-layer="3757" to-port="1" />
		<edge from-layer="3757" from-port="2" to-layer="3760" to-port="0" />
		<edge from-layer="3758" from-port="0" to-layer="3759" to-port="0" />
		<edge from-layer="3759" from-port="1" to-layer="3760" to-port="1" />
		<edge from-layer="3760" from-port="2" to-layer="3762" to-port="0" />
		<edge from-layer="3761" from-port="0" to-layer="3762" to-port="1" />
		<edge from-layer="3762" from-port="2" to-layer="3765" to-port="0" />
		<edge from-layer="3763" from-port="0" to-layer="3764" to-port="0" />
		<edge from-layer="3764" from-port="1" to-layer="3765" to-port="1" />
		<edge from-layer="3765" from-port="2" to-layer="3767" to-port="0" />
		<edge from-layer="3766" from-port="0" to-layer="3767" to-port="1" />
		<edge from-layer="3767" from-port="2" to-layer="3769" to-port="0" />
		<edge from-layer="3767" from-port="3" to-layer="3768" to-port="0" />
		<edge from-layer="3768" from-port="1" to-layer="3769" to-port="1" />
		<edge from-layer="3769" from-port="2" to-layer="3770" to-port="2" />
		<edge from-layer="3770" from-port="3" to-layer="3773" to-port="0" />
		<edge from-layer="3771" from-port="0" to-layer="3772" to-port="0" />
		<edge from-layer="3772" from-port="1" to-layer="3773" to-port="1" />
		<edge from-layer="3773" from-port="2" to-layer="3776" to-port="0" />
		<edge from-layer="3774" from-port="0" to-layer="3775" to-port="0" />
		<edge from-layer="3775" from-port="1" to-layer="3776" to-port="1" />
		<edge from-layer="3776" from-port="2" to-layer="3777" to-port="0" />
		<edge from-layer="3777" from-port="1" to-layer="3780" to-port="0" />
		<edge from-layer="3778" from-port="0" to-layer="3779" to-port="0" />
		<edge from-layer="3779" from-port="1" to-layer="3780" to-port="1" />
		<edge from-layer="3780" from-port="2" to-layer="3782" to-port="0" />
		<edge from-layer="3781" from-port="0" to-layer="3782" to-port="1" />
		<edge from-layer="3782" from-port="2" to-layer="3783" to-port="1" />
		<edge from-layer="3783" from-port="2" to-layer="3802" to-port="0" />
		<edge from-layer="3783" from-port="2" to-layer="3785" to-port="0" />
		<edge from-layer="3784" from-port="0" to-layer="3785" to-port="1" />
		<edge from-layer="3785" from-port="2" to-layer="3788" to-port="0" />
		<edge from-layer="3786" from-port="0" to-layer="3787" to-port="0" />
		<edge from-layer="3787" from-port="1" to-layer="3788" to-port="1" />
		<edge from-layer="3788" from-port="2" to-layer="3791" to-port="0" />
		<edge from-layer="3789" from-port="0" to-layer="3790" to-port="0" />
		<edge from-layer="3790" from-port="1" to-layer="3791" to-port="1" />
		<edge from-layer="3791" from-port="2" to-layer="3794" to-port="0" />
		<edge from-layer="3792" from-port="0" to-layer="3793" to-port="0" />
		<edge from-layer="3793" from-port="1" to-layer="3794" to-port="1" />
		<edge from-layer="3794" from-port="2" to-layer="3795" to-port="0" />
		<edge from-layer="3795" from-port="1" to-layer="3798" to-port="0" />
		<edge from-layer="3796" from-port="0" to-layer="3797" to-port="0" />
		<edge from-layer="3797" from-port="1" to-layer="3798" to-port="1" />
		<edge from-layer="3798" from-port="2" to-layer="3801" to-port="0" />
		<edge from-layer="3799" from-port="0" to-layer="3800" to-port="0" />
		<edge from-layer="3800" from-port="1" to-layer="3801" to-port="1" />
		<edge from-layer="3801" from-port="2" to-layer="3802" to-port="1" />
		<edge from-layer="3802" from-port="2" to-layer="3804" to-port="0" />
		<edge from-layer="3803" from-port="0" to-layer="3804" to-port="1" />
		<edge from-layer="3804" from-port="2" to-layer="3807" to-port="0" />
		<edge from-layer="3805" from-port="0" to-layer="3806" to-port="0" />
		<edge from-layer="3806" from-port="1" to-layer="3807" to-port="1" />
		<edge from-layer="3807" from-port="2" to-layer="3810" to-port="0" />
		<edge from-layer="3808" from-port="0" to-layer="3809" to-port="0" />
		<edge from-layer="3809" from-port="1" to-layer="3810" to-port="1" />
		<edge from-layer="3810" from-port="2" to-layer="3829" to-port="0" />
		<edge from-layer="3810" from-port="2" to-layer="3812" to-port="0" />
		<edge from-layer="3811" from-port="0" to-layer="3812" to-port="1" />
		<edge from-layer="3812" from-port="2" to-layer="3815" to-port="0" />
		<edge from-layer="3813" from-port="0" to-layer="3814" to-port="0" />
		<edge from-layer="3814" from-port="1" to-layer="3815" to-port="1" />
		<edge from-layer="3815" from-port="2" to-layer="3818" to-port="0" />
		<edge from-layer="3816" from-port="0" to-layer="3817" to-port="0" />
		<edge from-layer="3817" from-port="1" to-layer="3818" to-port="1" />
		<edge from-layer="3818" from-port="2" to-layer="3821" to-port="0" />
		<edge from-layer="3819" from-port="0" to-layer="3820" to-port="0" />
		<edge from-layer="3820" from-port="1" to-layer="3821" to-port="1" />
		<edge from-layer="3821" from-port="2" to-layer="3822" to-port="0" />
		<edge from-layer="3822" from-port="1" to-layer="3825" to-port="0" />
		<edge from-layer="3823" from-port="0" to-layer="3824" to-port="0" />
		<edge from-layer="3824" from-port="1" to-layer="3825" to-port="1" />
		<edge from-layer="3825" from-port="2" to-layer="3828" to-port="0" />
		<edge from-layer="3826" from-port="0" to-layer="3827" to-port="0" />
		<edge from-layer="3827" from-port="1" to-layer="3828" to-port="1" />
		<edge from-layer="3828" from-port="2" to-layer="3829" to-port="1" />
		<edge from-layer="3829" from-port="2" to-layer="3835" to-port="0" />
		<edge from-layer="3829" from-port="2" to-layer="3908" to-port="0" />
		<edge from-layer="3830" from-port="0" to-layer="3831" to-port="0" />
		<edge from-layer="3831" from-port="1" to-layer="3892" to-port="1" />
		<edge from-layer="3832" from-port="0" to-layer="3833" to-port="0" />
		<edge from-layer="3833" from-port="1" to-layer="3890" to-port="1" />
		<edge from-layer="3834" from-port="0" to-layer="3835" to-port="1" />
		<edge from-layer="3835" from-port="2" to-layer="3838" to-port="0" />
		<edge from-layer="3836" from-port="0" to-layer="3837" to-port="0" />
		<edge from-layer="3837" from-port="1" to-layer="3838" to-port="1" />
		<edge from-layer="3838" from-port="2" to-layer="3841" to-port="0" />
		<edge from-layer="3839" from-port="0" to-layer="3840" to-port="0" />
		<edge from-layer="3840" from-port="1" to-layer="3841" to-port="1" />
		<edge from-layer="3841" from-port="2" to-layer="3844" to-port="0" />
		<edge from-layer="3841" from-port="2" to-layer="3854" to-port="0" />
		<edge from-layer="3841" from-port="2" to-layer="3895" to-port="0" />
		<edge from-layer="3842" from-port="0" to-layer="3843" to-port="0" />
		<edge from-layer="3843" from-port="1" to-layer="3844" to-port="1" />
		<edge from-layer="3844" from-port="2" to-layer="3846" to-port="0" />
		<edge from-layer="3845" from-port="0" to-layer="3846" to-port="1" />
		<edge from-layer="3846" from-port="2" to-layer="3862" to-port="0" />
		<edge from-layer="3846" from-port="2" to-layer="3849" to-port="0" />
		<edge from-layer="3847" from-port="0" to-layer="3848" to-port="0" />
		<edge from-layer="3848" from-port="1" to-layer="3849" to-port="1" />
		<edge from-layer="3849" from-port="2" to-layer="3851" to-port="0" />
		<edge from-layer="3850" from-port="0" to-layer="3851" to-port="1" />
		<edge from-layer="3851" from-port="2" to-layer="3859" to-port="0" />
		<edge from-layer="3852" from-port="0" to-layer="3853" to-port="0" />
		<edge from-layer="3853" from-port="1" to-layer="3854" to-port="1" />
		<edge from-layer="3854" from-port="2" to-layer="3856" to-port="0" />
		<edge from-layer="3855" from-port="0" to-layer="3856" to-port="1" />
		<edge from-layer="3856" from-port="2" to-layer="3858" to-port="0" />
		<edge from-layer="3857" from-port="0" to-layer="3858" to-port="1" />
		<edge from-layer="3858" from-port="2" to-layer="3859" to-port="1" />
		<edge from-layer="3859" from-port="2" to-layer="3886" to-port="0" />
		<edge from-layer="3860" from-port="0" to-layer="3861" to-port="0" />
		<edge from-layer="3861" from-port="1" to-layer="3862" to-port="1" />
		<edge from-layer="3862" from-port="2" to-layer="3864" to-port="0" />
		<edge from-layer="3863" from-port="0" to-layer="3864" to-port="1" />
		<edge from-layer="3864" from-port="2" to-layer="3867" to-port="0" />
		<edge from-layer="3865" from-port="0" to-layer="3866" to-port="0" />
		<edge from-layer="3866" from-port="1" to-layer="3867" to-port="1" />
		<edge from-layer="3867" from-port="2" to-layer="3872" to-port="0" />
		<edge from-layer="3868" from-port="0" to-layer="3872" to-port="1" />
		<edge from-layer="3869" from-port="0" to-layer="3872" to-port="2" />
		<edge from-layer="3870" from-port="0" to-layer="3871" to-port="0" />
		<edge from-layer="3871" from-port="1" to-layer="3872" to-port="3" />
		<edge from-layer="3872" from-port="4" to-layer="3874" to-port="0" />
		<edge from-layer="3873" from-port="0" to-layer="3874" to-port="1" />
		<edge from-layer="3874" from-port="2" to-layer="3879" to-port="0" />
		<edge from-layer="3875" from-port="0" to-layer="3879" to-port="1" />
		<edge from-layer="3876" from-port="0" to-layer="3879" to-port="2" />
		<edge from-layer="3877" from-port="0" to-layer="3879" to-port="3" />
		<edge from-layer="3878" from-port="0" to-layer="3879" to-port="4" />
		<edge from-layer="3879" from-port="5" to-layer="3881" to-port="0" />
		<edge from-layer="3880" from-port="0" to-layer="3881" to-port="1" />
		<edge from-layer="3881" from-port="2" to-layer="3885" to-port="0" />
		<edge from-layer="3882" from-port="0" to-layer="3885" to-port="1" />
		<edge from-layer="3883" from-port="0" to-layer="3885" to-port="3" />
		<edge from-layer="3884" from-port="0" to-layer="3885" to-port="4" />
		<edge from-layer="3885" from-port="5" to-layer="3886" to-port="1" />
		<edge from-layer="3886" from-port="2" to-layer="3889" to-port="0" />
		<edge from-layer="3887" from-port="0" to-layer="3888" to-port="0" />
		<edge from-layer="3888" from-port="1" to-layer="3889" to-port="1" />
		<edge from-layer="3889" from-port="2" to-layer="3890" to-port="2" />
		<edge from-layer="3890" from-port="3" to-layer="3891" to-port="0" />
		<edge from-layer="3891" from-port="1" to-layer="3892" to-port="2" />
		<edge from-layer="3892" from-port="3" to-layer="3900" to-port="0" />
		<edge from-layer="3893" from-port="0" to-layer="3894" to-port="0" />
		<edge from-layer="3894" from-port="1" to-layer="3895" to-port="1" />
		<edge from-layer="3895" from-port="2" to-layer="3897" to-port="0" />
		<edge from-layer="3896" from-port="0" to-layer="3897" to-port="1" />
		<edge from-layer="3897" from-port="2" to-layer="3899" to-port="0" />
		<edge from-layer="3898" from-port="0" to-layer="3899" to-port="1" />
		<edge from-layer="3899" from-port="2" to-layer="3900" to-port="1" />
		<edge from-layer="3900" from-port="2" to-layer="3902" to-port="0" />
		<edge from-layer="3901" from-port="0" to-layer="3902" to-port="1" />
		<edge from-layer="3902" from-port="2" to-layer="3904" to-port="0" />
		<edge from-layer="3903" from-port="0" to-layer="3904" to-port="1" />
		<edge from-layer="3904" from-port="2" to-layer="3907" to-port="0" />
		<edge from-layer="3905" from-port="0" to-layer="3906" to-port="0" />
		<edge from-layer="3906" from-port="1" to-layer="3907" to-port="1" />
		<edge from-layer="3907" from-port="2" to-layer="3908" to-port="1" />
		<edge from-layer="3908" from-port="2" to-layer="3912" to-port="0" />
		<edge from-layer="3908" from-port="2" to-layer="3941" to-port="0" />
		<edge from-layer="3909" from-port="0" to-layer="3910" to-port="0" />
		<edge from-layer="3910" from-port="1" to-layer="3928" to-port="1" />
		<edge from-layer="3911" from-port="0" to-layer="3912" to-port="1" />
		<edge from-layer="3912" from-port="2" to-layer="3915" to-port="0" />
		<edge from-layer="3913" from-port="0" to-layer="3914" to-port="0" />
		<edge from-layer="3914" from-port="1" to-layer="3915" to-port="1" />
		<edge from-layer="3915" from-port="2" to-layer="3918" to-port="0" />
		<edge from-layer="3916" from-port="0" to-layer="3917" to-port="0" />
		<edge from-layer="3917" from-port="1" to-layer="3918" to-port="1" />
		<edge from-layer="3918" from-port="2" to-layer="3920" to-port="0" />
		<edge from-layer="3919" from-port="0" to-layer="3920" to-port="1" />
		<edge from-layer="3920" from-port="2" to-layer="3923" to-port="0" />
		<edge from-layer="3921" from-port="0" to-layer="3922" to-port="0" />
		<edge from-layer="3922" from-port="1" to-layer="3923" to-port="1" />
		<edge from-layer="3923" from-port="2" to-layer="3925" to-port="0" />
		<edge from-layer="3924" from-port="0" to-layer="3925" to-port="1" />
		<edge from-layer="3925" from-port="3" to-layer="3926" to-port="0" />
		<edge from-layer="3925" from-port="2" to-layer="3927" to-port="0" />
		<edge from-layer="3926" from-port="1" to-layer="3927" to-port="1" />
		<edge from-layer="3927" from-port="2" to-layer="3928" to-port="2" />
		<edge from-layer="3928" from-port="3" to-layer="3931" to-port="0" />
		<edge from-layer="3929" from-port="0" to-layer="3930" to-port="0" />
		<edge from-layer="3930" from-port="1" to-layer="3931" to-port="1" />
		<edge from-layer="3931" from-port="2" to-layer="3934" to-port="0" />
		<edge from-layer="3932" from-port="0" to-layer="3933" to-port="0" />
		<edge from-layer="3933" from-port="1" to-layer="3934" to-port="1" />
		<edge from-layer="3934" from-port="2" to-layer="3935" to-port="0" />
		<edge from-layer="3935" from-port="1" to-layer="3938" to-port="0" />
		<edge from-layer="3936" from-port="0" to-layer="3937" to-port="0" />
		<edge from-layer="3937" from-port="1" to-layer="3938" to-port="1" />
		<edge from-layer="3938" from-port="2" to-layer="3940" to-port="0" />
		<edge from-layer="3939" from-port="0" to-layer="3940" to-port="1" />
		<edge from-layer="3940" from-port="2" to-layer="3941" to-port="1" />
		<edge from-layer="3941" from-port="2" to-layer="3943" to-port="0" />
		<edge from-layer="3941" from-port="2" to-layer="3960" to-port="0" />
		<edge from-layer="3942" from-port="0" to-layer="3943" to-port="1" />
		<edge from-layer="3943" from-port="2" to-layer="3946" to-port="0" />
		<edge from-layer="3944" from-port="0" to-layer="3945" to-port="0" />
		<edge from-layer="3945" from-port="1" to-layer="3946" to-port="1" />
		<edge from-layer="3946" from-port="2" to-layer="3949" to-port="0" />
		<edge from-layer="3947" from-port="0" to-layer="3948" to-port="0" />
		<edge from-layer="3948" from-port="1" to-layer="3949" to-port="1" />
		<edge from-layer="3949" from-port="2" to-layer="3952" to-port="0" />
		<edge from-layer="3950" from-port="0" to-layer="3951" to-port="0" />
		<edge from-layer="3951" from-port="1" to-layer="3952" to-port="1" />
		<edge from-layer="3952" from-port="2" to-layer="3953" to-port="0" />
		<edge from-layer="3953" from-port="1" to-layer="3956" to-port="0" />
		<edge from-layer="3954" from-port="0" to-layer="3955" to-port="0" />
		<edge from-layer="3955" from-port="1" to-layer="3956" to-port="1" />
		<edge from-layer="3956" from-port="2" to-layer="3959" to-port="0" />
		<edge from-layer="3957" from-port="0" to-layer="3958" to-port="0" />
		<edge from-layer="3958" from-port="1" to-layer="3959" to-port="1" />
		<edge from-layer="3959" from-port="2" to-layer="3960" to-port="1" />
		<edge from-layer="3960" from-port="2" to-layer="3962" to-port="0" />
		<edge from-layer="3961" from-port="0" to-layer="3962" to-port="1" />
		<edge from-layer="3962" from-port="2" to-layer="3965" to-port="0" />
		<edge from-layer="3963" from-port="0" to-layer="3964" to-port="0" />
		<edge from-layer="3964" from-port="1" to-layer="3965" to-port="1" />
		<edge from-layer="3965" from-port="2" to-layer="3968" to-port="0" />
		<edge from-layer="3966" from-port="0" to-layer="3967" to-port="0" />
		<edge from-layer="3967" from-port="1" to-layer="3968" to-port="1" />
		<edge from-layer="3968" from-port="2" to-layer="3970" to-port="0" />
		<edge from-layer="3969" from-port="0" to-layer="3970" to-port="1" />
		<edge from-layer="3970" from-port="2" to-layer="3971" to-port="0" />
	</edges>
	<rt_info>
		<Runtime_version value="2025.3.0-19807-44526285f24-releases/2025/3" />
		<conversion_parameters>
			<input_model value="DIR\parakeet_encoder.onnx" />
			<is_python_object value="False" />
		</conversion_parameters>
	</rt_info>
</net>
